checkpoint_critic_0.pth (torch, 188663 bytes, 5 tensors)

fcs1.weight f4 [256, 52]
00000000: 5218 85bd 7ef0 f1bc 318b 513c 42c0 4cbc
00000010: 17d6 2a3e 8cd5 37bb 5292 c5bb fd04 963d
00000020: 39f0 873d ba50 9e3c 3b29 17bd 5c3e 003d
00000030: 9d94 153e 4b6e 51bd 672f 163d 2b59 833d
00000040: 8761 073e 420d bbbc 66a8 f53c 4342 493d
00000050: 616b 0dbe eb6e 76be 75d6 8cba 9ee6 013e
00000060: 881a 3dbe 023c 3c3e 6118 803d e1fb 213d
00000070: 9276 b1bd 5ef9 d93c 6c7d 0b3d 77ce dabc
00000080: 8502 0abe ff07 483e dc32 0dbb ca49 a0bd
00000090: 4153 d9bc 4a70 81bd 68c5 5fbd d68e 21bd
000000a0: 304c cdbd 2e97 833e bfc2 2fbb 5720 0fbc
000000b0: 5fd9 113e 3cd2 4fbe e55a 143c 7a10 fcbd
000000c0: 136c 223f 6adf 28be 02a7 5c3f 39ad 57be
000000d0: e1e2 3ebd f498 6c3e 8e2b d13c f274 28bd
000000e0: ec9d 4cbe ff32 abbe 23e6 7fbc 0135 acbd
000000f0: 5051 55bd 3f8f 033e c76d 32bd 716b 693d
00000100: 5a68 5f3c c4eb 17be 7006 523d 823c ad3b
00000110: 058e 26bd 57fa 3d3e 167c 1dbd 4437 f3bd
00000120: 97f6 5a3e 559e e73e 7f5a 4a3d d1d6 abbc
00000130: 5da1 eebd 2c7a 363e 114a 6fbd e978 f8bc
00000140: 952b 953e 168d 8dbe bb04 843d 0193 1d3c
00000150: 767c 2fbd cdc0 be3d 5692 c8ba 2d25 23bd
00000160: 04c1 93bd 0827 40be 13ef 0cbc 6669 d13c
00000170: 2854 e93c 1121 493e 89c7 c2bc 895e 2abe
00000180: a0f5 58be 7b5d af3e e0de 823c ef89 1cbe
00000190: dc10 a4bd dccb 95be 46d1 d9be 719a 493d
000001a0: b4a4 be3d d933 bb3e 6137 da3c 4a1c 683d
000001b0: beea 24bd f03f 8cbd 0e74 56bd 2175 843d
000001c0: 157e 433e bb27 bf3e f8b1 14bd d412 03be
000001d0: e6a0 c9bd 1f73 20be b1e1 b4bc 41df d5bd
000001e0: 13fe da3d e104 c93e 64f9 0a3d 1190 fb3d
000001f0: aab1 46be 066d 0fbf e2bf b23d 9757 433e
00000200: 71e4 9b39 5401 cb3d d090 02bd ad1a 87bd
00000210: 0bcc d83d c8ac 093d ad3d bbbc d95b 02bd
00000220: b2a8 b13d 9ddf 6d3e afad 0cbd f521 4c3c
00000230: 4307 563d 7955 11be 1d8d 0e3d b367 89bd
00000240: a6e5 ea3c 55f6 083e e700 ca3b bcea c8bd
00000250: d314 3a3e 61a0 0cbf 6765 423c bcf0 06be
00000260: 8fa4 743f 900e d2be bbe6 943e ff57 883d
00000270: a7ef 33bd 80d2 7a3d f359 3b3d 4d00 863c
00000280: c9c0 25be e47e a13d 563a be3b b3cb 8f3d
00000290: 28f0 5d3d f177 473e 800f 333d 91a7 293e
000002a0: 6bcf 563d 6c93 3a3d 4826 d23c e085 453e
000002b0: b85a 0d3e 252b ec3d e93a d23b f830 0abe
000002c0: 258f 493e 7b83 7cbe a4c3 6d3d 10c3 b0bd
000002d0: 7068 73bd 6ba1 8fbe e883 a93c ca67 983c
000002e0: eb41 273e 716a e63d 62bb 74bd d124 843d
000002f0: cfb3 0ab8 c85c 95be 7f57 11bd 53f5 3bbd
00000300: 944c 803c dd76 55bc 0acb f4bc 6bf0 01ba
00000310: 8de4 4f3e f0fe 92be 7dd0 9a3c 3156 98bc
00000320: eb0b 30be 7615 51be 5dba 7c3d 76dc 87bd
00000330: 8ed0 1dbe 412e 743d 7566 f83d b25d 63bd
00000340: 8ee2 a6bd 4eeb 83be 6ea2 233d 0a10 2dbe
00000350: 871b f03c fab1 23be 8e20 133b 46ac 5dbe
00000360: feb8 0cbe 024b a4be 3009 79bd ee29 933c
00000370: 9f2e 68bd 5414 5cbe 1b09 e83c eb22 98bd
00000380: e24b c3bc 13f9 04be 17a8 9e3d e1ed 763e
00000390: 2853 f9bc 8f17 bfbe 7c43 aaba c30d 703e
000003a0: 95dc 413e 850b a33d 0515 97bd 165e 6c3c
000003b0: 4413 713d 13b2 56be 9428 b2bd 13a5 2c3c
000003c0: eddb 6b3d 003b b7bc 4d15 2a3d 310d 09be
000003d0: a378 a3ba 79bd 59be fd25 6cbc 0699 00be
000003e0: 9691 b13d b5b2 fdbc 5e54 b0bd 1c64 bf3d
000003f0: 5091 943b f5cc 96be 5015 36bc 0e1c e53d
-0.06498779 -0.02953362 0.0127895335 -0.01249701 0.16683231 -0.0028050868 -0.0060294056 0.0732517
0.06637616 0.019325603 -0.036904555 0.03130947 0.14607473 -0.051130574 0.0366663 0.06413492
0.13220797 -0.02283347 0.029987525 0.049135458 -0.13810493 -0.2406575 -0.0010745066 0.1268563
-0.18467152 0.18382266 0.0625465 0.03954685 -0.086651936 0.026608165 0.03405516 -0.026709778
-0.13477524 0.195343 -0.0021545207 -0.07826574 -0.026528956 -0.063202456 -0.05463162 -0.03944286
-0.10024297 0.25701278 -0.0026818959 -0.008735738 0.14243077 -0.20295042 0.009054874 -0.1230783
0.6344616 -0.16491476 0.86192334 -0.21062173 -0.046603087 0.23105222 0.025533464 -0.041127153
-0.19982117 -0.33437344 -0.015618834 -0.08408547 -0.0520795 0.12847613 -0.043561723 0.05698723
0.013635719 -0.14836031 0.05127567 0.005286754 -0.040662784 0.18552528 -0.038448416 -0.118757755
0.21383129 0.45237985 0.04940271 -0.020976456 -0.11651871 0.17820042 -0.058420245 -0.030331092
0.29134813 -0.27646703 0.06446215 0.009617568 -0.042843305 0.093141176 -0.00153024 -0.039830375
-0.07214549 -0.18764889 -0.008601922 0.025562953 0.028482512 0.1964152 -0.023776786 -0.16637625
-0.21187449 0.34251007 0.015975416 -0.15286992 -0.08011028 -0.29257095 -0.42542475 0.049219552
0.093087584 0.36562994 0.026637735 0.056667604 -0.04026293 -0.068481326 -0.052356772 0.06467653
0.19091065 0.37335 -0.036302537 -0.12800151 -0.09845142 -0.15668915 -0.022080274 -0.10442973
0.10692992 0.39261535 0.033929244 0.12283338 -0.19403711 -0.5602573 0.08728005 0.19076382
0.00029734106 0.09912363 -0.031876385 -0.06596885 0.10585793 0.033612043 -0.022856558 -0.031825874
0.08674754 0.23229833 -0.034345325 0.012459268 0.05225302 -0.14192761 0.034802545 -0.06709232
0.028673958 0.13375218 0.0061646583 -0.09810397 0.18172006 -0.5493222 0.0118649965 -0.1317777
0.95563596 -0.41026735 0.29082283 0.06657409 -0.043929722 0.061235905 0.04574008 0.016357565
-0.16186823 0.078855306 0.005805294 0.070212744 0.05418411 0.19479348 0.043715954 0.16567828
0.052443903 0.04555075 0.02565302 0.1928935 0.13804138 0.11531667 0.006415714 -0.13495243
0.19683512 -0.24659531 0.058047906 -0.08630955 -0.05942577 -0.2805284 0.02069278 0.018604178
0.1633374 0.11250771 -0.059749015 0.06452335 -3.3069224e-05 -0.2917235 -0.035483833 -0.045888256
0.015661515 -0.0130288275 -0.029881973 -0.00049567845 0.20302029 -0.28710127 0.018898243 -0.018595787
-0.17192046 -0.20418343 0.061701167 -0.066338465 -0.15411589 0.059614424 0.12128917 -0.055509277
-0.081486806 -0.2576546 0.039949827 -0.1690065 0.029310001 -0.15985861 0.0022449824 -0.21647748
-0.13742444 -0.32088476 -0.060799778 0.01796433 -0.056685086 -0.2149213 0.028324654 -0.07428535
-0.023839895 -0.1298564 0.07746904 0.24114181 -0.03043516 -0.3732266 -0.0012990083 0.2344275
0.18931802 0.079611816 -0.07377056 0.014426729 0.058856264 -0.20966367 -0.08699146 0.010537404
0.057582784 -0.022367 0.04152422 -0.13383938 -0.0012471866 -0.21263684 -0.014413354 -0.12558374
0.086703464 -0.030969003 -0.08609842 0.09345266 0.004533924 -0.29453245 -0.01111348 0.11186992

fcs1.bias f4 [256]
00000000: 3739 1cbe ab09 9ebe b82a 353e b8f2 9e3c
00000010: 58b9 8cbc 3f94 0f3e d6f8 39be c16c 07be
00000020: e5c3 06be 4610 b6bd efe0 74be f6ef de3c
00000030: c2f0 cdbd 1edd 5b3d 83ed 173d 5d53 f4bc
00000040: 42a0 be3e 15bb 313d 0ec4 8ebe 7712 ee3d
00000050: 760f 863e c781 df3d c111 a0bd 4c71 9b3e
00000060: e731 d4bd 57d6 f03c 10d5 a53e 5092 76bd
00000070: 070e 01bd b7aa 86bd a16a debd 3c87 993c
00000080: e908 c9bd c581 13be b723 35be 3e7c ec3b
00000090: aa0c 35be 90dc 0ebe 1edd 603c ea8c c1bd
000000a0: ab7c 153e ddc0 b3bd beff e7be 8da6 7dbe
000000b0: 528e ff3d 0f08 8bbe 3c2d 19be b628 9dbe
000000c0: b484 9dbe 9acc 4f3d 83f4 9abe 7cb9 153d
000000d0: 126e 8c3d c499 a93d df0c 263d ae2c dd39
000000e0: cca8 323b bef4 c0bd 5387 ecbe 3f93 87be
000000f0: 3445 483e d35d 6dbe e3f1 86be 71eb eebd
00000100: 86de 06be 06fa ae3d bbf1 dcbc 49a4 d7bd
00000110: 8661 2abe b182 b3bd f778 c0be 2863 0fbe
00000120: e416 d1bd 6d7c 12be 17cd 13be 5c4c e2bd
00000130: 592d 8a3e fab4 dd3e 1dd2 443c 39a5 8bbe
00000140: 2c36 23bd 30d5 0e3e 1c33 433d 21b9 2ebd
00000150: 5090 7ebd ff45 2ebe c287 e0bc 2828 f03c
00000160: 5e1d 1b3e 38cd 22be 3a72 3cbe 9895 02bd
00000170: 7b0e d7be dbaa 14bd bb92 8dbb 0490 18be
00000180: be7a 733e 95d7 eb3d 4c06 b5bd 097d 0d3c
00000190: a05c c3bd 57f3 b13b 094b 413e f0e0 4ebe
000001a0: 79e1 e4bd 4a24 94bd d5c1 0b3c 32f1 e33d
000001b0: a25b e73c 5bc7 b0be 86c1 46be f06c 99bd
000001c0: 03c1 543e fe4d c0bd 12bf 7abd 74b2 90be
000001d0: 97bd 52bc 5f18 8bbd 7bcd 3d3a 0d0c 00be
000001e0: bfe8 083e 4bf8 92bd 3a1f 303d aacf cc3d
000001f0: 58ab 66be e7b2 6fbe 8ffb 09be f067 543e
00000200: 63e0 353d 2657 a4bd 9d26 a43d 6793 5bbe
00000210: c471 90be 7601 aebc 6087 803e 3f78 5ebd
00000220: 6c14 53bd b009 cbbd 585e bb3d 2881 a7bd
00000230: d006 d73c e744 5abe 666a 813d 0d66 0c3e
00000240: 7cc6 1abe ef9f 63bd 6471 15be 44c4 25bb
00000250: e3ed 55bd 1149 a23c ec4c 22be f167 fe3d
00000260: edde 38be eac7 6dbe 65b2 68bd fe18 b63d
00000270: 7e20 29be 58e3 01be 07c6 f6ba f023 df3e
00000280: 0749 99bd a503 333d 7b60 3fbe a09e 143d
00000290: 427c 17be 1e3f bcbd a282 06bc af2a febd
000002a0: 8d91 b13d ae96 a23d 1731 e53d 61a5 cabe
000002b0: 658b 12bc fca5 8b3d d67d 19be f2ca 0e3e
000002c0: 28b4 143d 278b 4fbe c962 5ebd 3625 9abd
000002d0: 3366 fa3d 53b2 83bd 2c5b c33d 03a8 5c3c
000002e0: 6fb6 743d 5e6a 38bd 5251 8cbd d0b7 43be
000002f0: c7da 2dbd 16ae 11be 7928 363d a520 31be
00000300: 0be6 06be b1cf cebe 0e4a 553d 9898 4e3d
00000310: 59f7 ecbd 9960 b9bb 6847 e5bd 314b 10be
00000320: 0758 b33c 6f87 243d cd88 6dbe 34ea 1cbe
00000330: 5bab 60bd d790 3fbc 9cc8 c1bb 687e 423e
00000340: c95b 133d 0e8c 9a3d bce1 25be 6926 a3be
00000350: 95a0 61be 34b0 babd 4185 c5bd 43e6 e33c
00000360: 48bd 83bd b4de 4fbd 0806 9b3d 1a8e de3c
00000370: 7aa6 90bd ba34 c83d 1739 b9be 3335 023d
00000380: 7f3b 37bd df27 453e 2f91 d6bd fb39 403d
00000390: 4943 44be c031 13bc ccc9 123e ab36 33be
000003a0: 6beb a2be 3466 523d 4ad9 ab3e f4d0 033e
000003b0: 8488 09bd 4f7e 8bbd 9d48 283d f86d 92bd
000003c0: c13d a0bd 6299 2cbd d9a2 d6bd 148e c53d
000003d0: aab6 02bf 234e 1fbe 6ea1 1cbd 3053 56bd
000003e0: b6e5 adbd b95a 023d 2739 2f3e b3e5 e73d
000003f0: 5b55 5dbd e58a 0d3d 29b2 8dbd 5b24 62bd
-0.152562 -0.3086675 0.17692077 0.019402847 -0.017178223 0.14021395 -0.1816133 -0.1322508
-0.13160665 -0.08889823 -0.2391393 0.027214032 -0.100556865 0.05367767 0.037091743 -0.029824907
0.37231642 0.043391306 -0.27883953 0.11624616 0.2618367 0.10913425 -0.07815886 0.30359876
-0.103610806 0.02939908 0.32389116 -0.06019813 -0.03150752 -0.0657553 -0.108601816 0.018741243
-0.098161526 -0.14404972 -0.17689405 0.0072169593 -0.17680612 -0.13951325 0.013724593 -0.09450705
0.14598338 -0.0877702 -0.45312303 -0.24770565 0.12478317 -0.27154586 -0.14958662 -0.30695122
-0.30765307 0.050732233 -0.30264673 0.036553845 0.06856932 0.082812816 0.04053962 0.00042185694
0.0027261255 -0.09421681 -0.46196994 -0.26479527 0.19557649 -0.23180322 -0.2635642 -0.11666001
-0.13170823 0.08543782 -0.026970735 -0.10529382 -0.16638765 -0.08765162 -0.3759229 -0.14002669
-0.10209444 -0.14305277 -0.14433704 -0.11049721 0.26987723 0.43302137 0.012012986 -0.27274492
-0.039846584 0.13948512 0.047656164 -0.04265702 -0.062149346 -0.17018889 -0.027408484 0.029316023
0.15147921 -0.15898597 -0.18402949 -0.031880945 -0.42003235 -0.036295753 -0.00432047 -0.14898688
0.23777291 0.115157284 -0.08839092 0.008635768 -0.09539151 0.0054306197 0.1887628 -0.20202994
-0.11175818 -0.07233484 0.0085301 0.11129989 0.028241936 -0.34527096 -0.19409761 -0.07491481
0.20776753 -0.09389876 -0.061217375 -0.2826115 -0.012862585 -0.06791758 0.0007240397 -0.12504597
0.13370036 -0.071762644 0.04299853 0.10000546 -0.225263 -0.2340809 -0.13474868 0.20742774
0.044403445 -0.08024435 0.080151774 -0.21442948 -0.28211796 -0.021240931 0.25103283 -0.054313894
-0.051533148 -0.09913957 0.09148854 -0.081789315 0.026248366 -0.21315347 0.06319122 0.13710804
-0.15114778 -0.055572446 -0.14594036 -0.0025293985 -0.05222882 0.019810231 -0.15849656 0.12422169
-0.1805379 -0.23220792 -0.056810755 0.08891486 -0.16516301 -0.12684381 -0.0018827327 0.43582106
-0.07484632 0.043704648 -0.18689148 0.03628409 -0.14793494 -0.09191726 -0.008209856 -0.12410485
0.0867034 0.07938896 0.11191004 -0.395793 -0.008944367 0.068187684 -0.14989409 0.13944605
0.036304623 -0.20267926 -0.054293428 -0.07526629 0.12226524 -0.06430497 0.09538874 0.0134677915
0.059744295 -0.045023315 -0.06851448 -0.19113088 -0.04244497 -0.14226565 0.04447219 -0.17297609
-0.13173692 -0.4039283 0.052072577 0.050438493 -0.11570615 -0.0056572673 -0.1119526 -0.14091183
0.02189256 0.040168222 -0.23196717 -0.15323716 -0.054850917 -0.011692247 -0.005913807 0.18993533
0.035976205 0.075462446 -0.16199392 -0.31865242 -0.22033913 -0.09115639 -0.09644557 0.027819758
-0.06432587 -0.050749496 0.0756951 0.027167369 -0.07063003 0.09775682 -0.3617637 0.031789016
-0.044734474 0.19253491 -0.1047691 0.046930294 -0.19166292 -0.008984029 0.14334792 -0.17501323
-0.31820235 0.051367 0.33564216 0.12872678 -0.033577457 -0.06811201 0.041084874 -0.07149881
-0.078242786 -0.042138465 -0.104802795 0.0964624 -0.51059973 -0.1555715 -0.03823989 -0.052325428
-0.084910795 0.0318248 0.17111646 0.113231085 -0.05403648 0.03455629 -0.06918747 -0.055210453

fc2.weight f4 [128, 256]
00000000: d6c1 73bd 02a7 073e 7782 24be a22d 73be
00000010: 58a7 92bd c9e9 2dbd 5212 31be b6e5 d63c
00000020: 1b66 2b3e 8d10 1f3e 883a c03d 9864 4cb9
00000030: 2441 0abe f77b 3fbe 55a1 803c 14f4 77bd
00000040: 19c2 a83d ebdd beba 5bfc ebbd cb2f 873c
00000050: aa79 93be 3dd0 bbbd dfae fa3d bae7 bf3d
00000060: 44e8 9b3c 96db 89be ac70 453e f5ac 10be
00000070: d1ba 193e 6002 cfbe c508 9ebe 3487 d53d
00000080: f4b4 9e3d 214c b6bd 9647 f5bc 7d06 2abd
00000090: 1a1f a53d c639 20bc e878 b2bd f50b 273e
000000a0: 5e47 03be d0e2 45bd 2d24 76be c7c5 cbbd
000000b0: 62a3 82bd 6946 0d3e eede a43d e0c9 a23d
000000c0: 8da2 2fbe 5559 e43a cd33 093e a1ef 8fbe
000000d0: f2cb c9bd 0b1f 9abd 8608 1dbc 32d8 54be
000000e0: a0d5 0ebd fbef 743d 145a 04be 4a32 6bbd
000000f0: 1267 233e 44f1 313e d1f0 b3bd b1f4 22be
00000100: 0a17 a0be f6c0 71be d5ad e0bd a521 5dbd
00000110: fc33 c5bc ba13 103d 327b 643d aa72 09be
00000120: 3e52 8bbd df28 7c3d 5d29 babd d419 e6bd
00000130: e24d 253e 004c 3e3d d5bf 573d 7e1f 253a
00000140: 030d 533d 0633 babd 5d5f 7b3d 2fa7 e2be
00000150: a9f5 053e 87cd 3dbb 1269 033d ed82 d13d
00000160: 4002 7c3d f46d f6be 6d9b 6e3d 8db7 fbbc
00000170: e363 86bd 9d18 0cbe ef3f 493e 0444 83be
00000180: 092c 983b 7f63 19be 538a 253e deb4 46be
00000190: a1e8 293e cf35 c8bd ba04 403b 737c dd3d
000001a0: a1c4 993c fde5 3ebe c7f0 a6bd c513 d9bd
000001b0: 6fac 10be fed4 35bd eedd ed3d 6d72 123e
000001c0: 8f48 3ebe 7daa 2cbd 8f80 54be 2b78 dcbd
000001d0: 1483 863d 6ffe 963d 741a 53bd 9b22 81be
000001e0: 4dfa 84be 7b3c 473e 33a2 303e 9227 4cbe
000001f0: 3241 1dbd 9647 f0bd 3c84 a03d 5a84 6a3c
00000200: 1003 7dbe 3427 c6bd 0d85 7e3d 1b5a ba3c
00000210: 3b38 efbd c48b 193e 94eb 69be bb69 31bd
00000220: 13e9 c0bd b7c3 dbbb a2b6 583d 6892 20be
00000230: b3c7 64bd f9ec 5abe 9fd0 ecbc 384f 6fbe
00000240: 66f1 9d3b d9a6 683d e6b8 023e 619c 2a3e
00000250: f4ce 65bd 260b 90bd dad3 22be 52f3 933d
00000260: eafc d1bd 4be7 b03c a8db abba ba6c 42bb
00000270: d94e 0d3e 4f00 293c e626 933d 762f 07be
00000280: d19b f6bd 6fe3 cebd 40c7 e5bc d800 cfbd
00000290: 167a 38bd add7 983d ed10 1f3c 3669 fe3c
000002a0: 3dbe 363e aac2 da3d b51e e63c 5cc9 14be
000002b0: b0cd 6dbe 9520 9fbe c3d1 b5bd 4767 693e
000002c0: 6915 d7be 223e edbd 27c4 c8bd 48a1 d7be
000002d0: bdfa 86bd ed89 30be 51f8 de3d e5a8 7ebd
000002e0: a920 263e 5600 febd d113 59bd 9b94 a83c
000002f0: ee34 20be 77f1 4bbe f759 033e 681b 59be
00000300: 0a5f 1b3d ac2d 75bd 29f5 6e3d afbf 0abc
00000310: 9069 2e3c 5ee4 41bc 70fb 86bd 8de7 53be
00000320: f1b8 96be 05df 9c3c b598 20be e1cd c1bd
00000330: 240c a33d f0f3 e9bd 8222 63bb 6614 61bd
00000340: 5dcb 1fbe b582 bfbe ea66 85be 89a1 02be
00000350: ad39 09bd 3ffe bb3c 61a1 423d 2877 1c3e
00000360: 1bf7 2a3e d55d 963d 1118 d1be 9d1a d93d
00000370: 1030 73bd affa d7bc deac ac3d 4468 bc3a
00000380: 900c 1cbe 743c 45be 7b35 833d b5c5 17bd
00000390: a3e0 e13c 36e9 89bd ffb2 d73b ad93 bf3d
000003a0: c86a ae3c 4316 80be f044 b1bd 7671 5fbe
000003b0: 1ad2 013e 6e11 e03b 4532 87bb 7bc7 52be
000003c0: 8698 44be 5229 65bc e493 4cbd de44 d33d
000003d0: 0dd8 83bc 2178 c93d 6b6d 0ebe d82d e5bd
000003e0: 67a1 10be 2083 cc3d 9c79 2dbc c96e a2be
000003f0: b006 d6bd e131 7bbe 1d41 c6bc 0d33 0d3e
-0.05951103 0.13247302 -0.16065393 -0.23747876 -0.071608245 -0.042459283 -0.17292145 0.026232582
0.16738169 0.15533657 0.09386164 -0.0001949243 -0.13501412 -0.18699633 0.01570193 -0.060535505
0.08240146 -0.0014561986 -0.11522742 0.016502282 -0.2880376 -0.09170578 0.12240385 0.0937037
0.019031651 -0.26925343 0.19281262 -0.14128478 0.15012671 -0.404315 -0.30866066 0.104261786
0.07749358 -0.08901239 -0.029941361 -0.041510094 0.08062573 -0.009779399 -0.08714467 0.16313155
-0.12820193 -0.04831201 -0.24037237 -0.099498324 -0.06378819 0.1379639 0.08050333 0.07948661
-0.17151852 0.0017421643 0.13398667 -0.2811251 -0.098533526 -0.07525452 -0.009584552 -0.20785597
-0.034871697 0.059799176 -0.12924987 -0.057421006 0.15957287 0.17377192 -0.087861665 -0.15913655
-0.31267577 -0.23608765 -0.10970656 -0.053987164 -0.02407264 0.035175063 0.05578155 -0.13422647
-0.06802796 0.061562415 -0.09089921 -0.11235395 0.16142991 0.046459198 0.05267318 0.0006298943
0.05152608 -0.09091763 0.061370242 -0.44268176 0.13081993 -0.0028961615 0.032082625 0.1023005
0.061525583 -0.48130763 0.058253694 -0.030727172 -0.06562021 -0.13681264 0.19653295 -0.2563783
0.0046439213 -0.14979361 0.16166048 -0.19404933 0.16592647 -0.09775888 0.0029299692 0.108147524
0.018770518 -0.18642421 -0.081513934 -0.10599474 -0.14128278 -0.04439258 0.11614595 0.14301462
-0.18582366 -0.042154778 -0.20752166 -0.10765108 0.0656797 0.07372748 -0.0515389 -0.25221714
-0.25972214 0.19456665 0.17249374 -0.1993697 -0.038392253 -0.11732404 0.07837722 0.014313782
-0.247082 -0.09675446 0.062138606 0.022748044 -0.11680647 0.14994723 -0.22843772 -0.043313723
-0.094194554 -0.0067066806 0.052908547 -0.1568085 -0.05585451 -0.2137946 -0.028908072 -0.23370063
0.0048200367 0.056799743 0.12765846 0.16661216 -0.05610557 -0.070333764 -0.15901127 0.07224144
-0.10253318 0.021594664 -0.0013111727 -0.0029666857 0.13799609 0.010315015 0.07185154 -0.13201699
-0.12041438 -0.10101973 -0.028049111 -0.10107583 -0.045038305 0.07463012 0.009708625 0.031056028
0.17846008 0.106816605 0.028090814 -0.14529938 -0.23222995 -0.31079546 -0.088778995 0.22793303
-0.42008522 -0.115841165 -0.09803038 -0.42115235 -0.06590793 -0.17240115 0.10887206 -0.06217279
0.16223396 -0.12402408 -0.052997414 0.020578673 -0.15645191 -0.1991633 0.12827288 -0.21201861
0.037932433 -0.05985801 0.05833927 -0.0084685525 0.010645285 -0.011834232 -0.06590927 -0.20693798
-0.29437974 0.019149313 -0.15683253 -0.094630964 0.079613 -0.114234805 -0.003465802 -0.054951094
-0.1560492 -0.3740441 -0.2605508 -0.12756933 -0.03350227 0.022948382 0.047517184 0.1527983
0.16695826 0.07342116 -0.40838674 0.10600779 -0.059372008 -0.026364652 0.08431409 0.0014374335
-0.15239167 -0.19261342 0.06406685 -0.037053782 0.027572935 -0.067339346 0.0065826173 0.09354339
0.021291152 -0.25016984 -0.08655727 -0.21820626 0.12677804 0.0068380153 -0.0041258656 -0.20583908
-0.19198808 -0.013986902 -0.049945727 0.1031587 -0.016094232 0.09837366 -0.13908927 -0.111903846
-0.1412407 0.099859476 -0.010588076 -0.31725147 -0.10450494 -0.24530746 -0.02420097 0.13789006

fc2.bias f4 [128]
00000000: d42f e83c 04c4 153d 7917 c4bd a318 263d
00000010: dad9 943e 3e3f 883d e088 b3bd 62a3 5bbc
00000020: 8611 743e 17ef d0bb e071 ab3b 1dd6 66bb
00000030: f538 15bc e911 26be 58d1 f63d c8a2 91ba
00000040: e5c1 d3bc c05a 973d df0a 00be e768 57bd
00000050: 5490 af3e 69a9 f4bc e5c4 83bc 3bd7 243e
00000060: a7b6 f6bd f87a ec3d 10a8 603e 098e b2bd
00000070: f9ea 63bc 481d b83e 31b5 c9bc bed8 83bd
00000080: bef6 f2bd d968 1b3e b007 86bd 44e2 4b3d
00000090: 1da0 be3c 34b1 d2bd 7e53 16be b047 00bd
000000a0: 16c3 343e 0408 1e3d b359 0b3d 7376 10be
000000b0: 548d 133c d71a 2f3b 24f0 32bd b8c1 863c
000000c0: b075 253d 7794 27bd c8c7 dcbc f423 d1bd
000000d0: bca9 013c d6b7 2e3d 075b ea3c f3f1 0e3e
000000e0: b37c 8e3d e1c1 a2bd 3b16 25bd 03d8 1cbd
000000f0: 7795 c4bd 9fb4 1e3c aad1 06be d070 163d
00000100: 390e 31bd 523d 8a3e 3371 2a3d b5b3 9c3d
00000110: 67b7 a43e 7741 803d 86c4 d3bd 585a 27bd
00000120: 42fe b1bd c86e fdbc 6267 0cbe dbad a3bd
00000130: 2f72 f93c 6e6e 703d 9efb 32bc 9c9b 643c
00000140: 1f31 373d f44a 543d b0d3 6d3d ccbf 8bbd
00000150: 0a18 aebd 9c52 913d 72e8 733e 3555 003e
00000160: d687 8a3b d01d 073e 3e45 a5bd 603b c0bd
00000170: ab5f 3a3e a82a 88bd fe6a a63d ddf1 babd
00000180: 5613 06bd 3882 a33d 56c7 0cbe 9b2c 3f3c
00000190: 1554 383d b6fb 09be ce0f 1c3e 799c e4bd
000001a0: ad68 8b3c 6c4c e63d 0565 98bd f9e3 5cbe
000001b0: 2a9a 8bbc 36df 133d 40b1 d3bc 6655 393e
000001c0: d663 de3d da1a ef3a d974 973d 2166 eabd
000001d0: 8c21 f53c a0ba 053c 304b 1ebe e615 083e
000001e0: 3c24 88bd 8c2f 373d 14cd 1f3e e135 72bd
000001f0: ddee 8bbd 64a7 403d a4de ceba 5530 cdbd
0.028343119 0.03656389 -0.095747896 0.04055084 0.29072458 0.066526875 -0.08766341 -0.013405653
0.2383481 -0.006376158 0.005232081 -0.0035222836 -0.009107818 -0.1621777 0.12051648 -0.0011111135
-0.025849292 0.07390356 -0.12504147 -0.052590277 0.342898 -0.029865937 -0.016085098 0.16097729
-0.12046557 0.11546892 0.21939111 -0.08718497 -0.013911002 0.3595984 -0.024622532 -0.06437825
-0.118634686 0.15176715 -0.06544435 0.04977633 0.023269707 -0.10287705 -0.14680287 -0.031318367
0.17652544 0.038581863 0.03402109 -0.14107685 0.009005863 0.0026718879 -0.043686047 0.016449794
0.04039544 -0.04091307 -0.026950732 -0.10211936 0.007914003 0.04265579 0.028607858 0.13959484
0.06957378 -0.07947136 -0.040304404 -0.038291942 -0.09598821 0.009686618 -0.13165918 0.03672868
-0.043226454 0.2699991 0.04161186 0.07651464 0.32171175 0.062624864 -0.10340218 -0.040857643
-0.08691074 -0.030936614 -0.13711312 -0.07992145 0.030449955 0.058699064 -0.010924248 0.013953116
0.04472458 0.051829293 0.05806321 -0.06823692 -0.08500679 0.070958346 0.2381914 0.12532504
0.0042276187 0.13194966 -0.080698475 -0.09386325 0.18200557 -0.06648761 0.08125876 -0.09128163
-0.032733284 0.07983822 -0.13747916 0.01166835 0.045002062 -0.13474926 0.15240404 -0.11162657
0.017017687 0.11245045 -0.07441143 -0.2157134 -0.017041285 0.036101542 -0.025841355 0.18098983
0.10858886 0.0018242255 0.07395334 -0.11445261 0.029923223 0.008162171 -0.1545837 0.13289604
-0.06647536 0.04472308 0.15605575 -0.059133414 -0.06832669 0.047034636 -0.0015782905 -0.10018984

fc3.weight f4 [1, 128]
00000000: 657e 2d3d 7f9a 073d 0ded 42bd 8dfa db3c
00000010: 7a6f ecbc af08 793d ac6e 2b3d 2046 0fbd
00000020: dc73 8c3c 3044 f6bc 5fc8 143d 633f 323d
00000030: eca6 07bd 4e92 193d ab17 033d 2e7e e8bc
00000040: bc2c 003d cf01 7cbc 1e46 5dbd b372 153d
00000050: 43f7 99bc ca3e 16bd 754f 5bbd 298e fb3c
00000060: 35f1 b6bc bdd4 993c 296c 1b3c 7acd 27bd
00000070: f1db 2dbd 1ede 123d dc72 5dbd 4b54 04be
00000080: 6b01 5dbd a602 f23c be52 06bd f2b4 2c3d
00000090: dab9 5ebd 3cda 413d f0ae 29bd 8a83 fc3c
000000a0: d5e3 863c e4ac 4cbd 499b 063d e57b 84bd
000000b0: fcc8 80bd 63fb 04bd c191 23bd 89d5 d23c
000000c0: f8f3 213d 3620 07bd 8b36 183d 8b10 aabc
000000d0: bc75 003d 24fc 243d 33d0 b13c d856 d73c
000000e0: 2414 fe3b 99c4 24bd babe 9a3c c104 c73c
000000f0: 24da 52bd 0df6 323d 8f37 55bd 1e30 003d
00000100: a07c 10bd df30 85bc f562 ca3c 8036 29bd
00000110: c106 a53c d1dd a8bc d3e0 21bd 8778 c939
00000120: ae7d ddbc 0ef1 60bd 6e9b 55bd ca82 65bd
00000130: 8982 eabc ecf2 16bd ba86 073d 33cb db3c
00000140: 721f 033d 5f10 4e3d b7aa a23c f0a7 08bd
00000150: 2f9c 09bd 67a7 313d e791 873c 7889 c1bc
00000160: 2d38 f4bc 4e88 a4bc 2632 87bd 8d43 b0bc
00000170: a5da 663c f7cb f8bc c74c 903c 4281 5dbd
00000180: 9b37 32bd b4c0 083d bc56 20bd 6ef1 293d
00000190: 2795 c93c df35 2bbd 5b81 053d e615 a1bd
000001a0: eba9 05bd 992a 323c 5463 06bd 600b 01bd
000001b0: f8da babc 9351 e23c 3910 ebbc 066c 9e3c
000001c0: d148 193d c2d8 4cbd 4934 203d 7772 e93c
000001d0: 271a 0b3d 5cca 64bd 1119 24bd 3657 3a3c
000001e0: b4bc 9abb bab2 133d 2375 0f3d 36fe f4bc
000001f0: 56be 153d 283e d53c 7d05 a83c c3d2 dfbc
0.042356867 0.033106323 -0.04758935 0.02685287 -0.02886175 0.060799297 0.04185359 -0.034978986
0.01714509 -0.030061811 0.0363239 0.04351748 -0.033118173 0.037493043 0.032004993 -0.02838048
0.031292662 -0.015381291 -0.054021947 0.03648634 -0.018794661 -0.036680974 -0.053542573 0.030707436
-0.022331813 0.0187782 0.009486237 -0.040967442 -0.04244608 0.03585636 -0.054064617 -0.1292278
-0.05395643 0.029542278 -0.032793753 0.04216475 -0.05437646 0.047327265 -0.0414266 0.030824441
0.01646606 -0.04996957 0.032862935 -0.064689435 -0.06288335 -0.032466304 -0.039933924 0.025736587
0.039539307 -0.032989703 0.03716139 -0.020759841 0.03136228 0.040279523 0.021705722 0.026286528
0.007753866 -0.040226553 0.018889774 0.024294259 -0.051477566 0.043691684 -0.052054938 0.031295888
-0.0352751 -0.016258655 0.02470539 -0.04131174 0.020144822 -0.020613583 -0.03952105 0.00038427507
-0.027037468 -0.054917388 -0.052150182 -0.056032933 -0.028626697 -0.036852762 0.03308747 0.026830291
0.03201241 0.05030858 0.019856794 -0.033363283 -0.033596214 0.043372538 0.016549064 -0.02362512
-0.029811943 -0.020084526 -0.06601362 -0.021516586 0.014090215 -0.030370696 0.017614735 -0.054078348
-0.04351006 0.0333869 -0.039145216 0.04149001 0.024607254 -0.041799422 0.032594066 -0.07865505
-0.03263275 0.010874414 -0.03280957 -0.03150499 -0.02280949 0.027626788 -0.028694259 0.019338619
0.03742296 -0.050011404 0.039112363 0.028496964 0.033960488 -0.055857047 -0.040062968 0.011373332
-0.004722202 0.03605912 0.03502382 -0.029906373 0.03655847 0.026030615 0.02051043 -0.027322179
