checkpoint_critic.pth (torch, 544717 bytes, 5 tensors)

fcs1.weight f4 [400, 33]
00000000: 1090 4e3d bcbf 40bd 9c16 2cbd 8534 cbbd
00000010: b236 2ebd bf1a 50bd e90f 633d 92b8 42bc
00000020: 961e 843c 6bf9 18be afd2 123d 09f0 803c
00000030: f621 be3c a700 01be 6b76 bb3d f5ae 54ba
00000040: 7e0b 8bbc 6733 57bc 363c 73bd 80b0 b0bd
00000050: 1e70 8abc 915d 963c f3c6 0dbd 8044 89bd
00000060: 3236 97bc a85d 93bd 595f 53bd 315e ec3c
00000070: 908b c63c 821f 473d 5cfd bcbd 6a8b fd3c
00000080: 8ac4 163e fd26 073e 16c6 943d 30ac 5abd
00000090: 3678 1fbd 3a71 b93d a0ef 163d cf29 a0bc
000000a0: 0324 57bd 4a53 abbd df5b fe3c beeb 033d
000000b0: d90a a8bd 695f 62bc 126a 4f3d 9c0d 9ebd
000000c0: 3cea eabc 5c76 0fba a2b9 6abd a460 eb3d
000000d0: 0e5a 903d a77b 11bc 27da 39bd c4b0 f0bb
000000e0: e144 753c c56e dcbc c294 813d 83b5 6bbd
000000f0: 91e8 253e 15f2 183e 6df7 36bc c0de 0dbe
00000100: 6566 4cbd 2aff 793e e2e1 3f3d f908 47bd
00000110: b1c2 193d 725b 30bd feea 393d 731b 5bbd
00000120: 7ed8 09bc 99d7 00bd 3d2b 0b3e 5170 bcbb
00000130: 59ad cd3c 53aa 543c 099c ad3b 6c44 9e3d
00000140: 4967 e73d 2848 efbd fed9 1bbd 8e44 e73b
00000150: 4ac3 56bd 8738 363c 37f8 14bc 33b4 033d
00000160: 91a3 04bd f23c 763d 6f37 343d 92fa 5bbd
00000170: 22ea ccbd b7ef f33d 1ed1 063d c709 43bc
00000180: ec5d 0dbe 7b7b 173d 8604 123f be66 66be
00000190: 66b1 493e 90e8 04ba 0a94 8fbc 86c8 c5bd
000001a0: 91a3 ba3b 720d 74bc 3d0d 00bc daa9 2a3c
000001b0: 7856 6fbc 49ba f7bd 49dd a13d 047d 7dbd
000001c0: 4dfa 053d e2d3 b33d b8dd e23c 15ca 59bc
000001d0: 993c 46bc 81b0 40bd c188 5f3d f509 d93c
000001e0: 7ade ff3c 2738 dc39 2bde 893d e2e1 ccbc
000001f0: 2a83 113d 1b0a 6f3d 034e 093d 6155 063c
00000200: 80f3 9abc bbf4 803c 4809 4a3d 9303 f63d
00000210: 209b 9b3d 9552 a4bd e7d4 14be f1ba c5ba
00000220: 118f 403d 19ef ad3c b733 93bc 705b 45bd
00000230: 8bc6 da3d 18bf 313e 36c2 ea3c 7ed0 503d
00000240: 2cb8 50bb 2089 123c 9a8b 7e3d 642a 6d3d
00000250: 2815 723d 082f 753d cd9b d63c 38bc 6b3d
00000260: c47e 523c 6c5f fe3d 9ad4 7e3d 99fe be3d
00000270: 9eb0 cfbb 3ec6 cbbb 9894 30bd f3c6 ab3d
00000280: 3efb 4a3c 4310 c8bc 6587 1fbe 1a73 1abc
00000290: b325 2cbe a207 513d 29cf 0bbd 1439 96bd
000002a0: f346 f7bc a246 1fbe a11a 16bc e148 083c
000002b0: 54eb b13c 2964 4cbe 1f80 d8bc 671a 89b9
000002c0: d719 933c 46a6 273c 4d4c 1abd eef5 223d
000002d0: df32 b43d f518 c93c c042 02bd 1378 cf3c
000002e0: d787 66bd d024 783d c78b 21be 92df 9d3d
000002f0: a565 043c b05f e2bc 7fd2 4cbc 39de 15bd
00000300: 3970 2d3e ca69 7fbd 6349 203d ef5a 5dbe
00000310: 5da1 b53c 335f 803e c3d8 cd3d fce6 44bd
00000320: 578a d53c 49d9 84bd 5632 ac3c 9252 14bd
00000330: 1c89 8fbd 61b8 993c 1e57 813d e7b3 b9bd
00000340: f147 6fbd 3feb fcbb 8c4d c7bd 54a8 3dbe
00000350: d762 0e3e 8ef3 4cbc 3a17 453b 14bd 3a3c
00000360: 26f5 343d 17cf 8bbb 36ac 15bd 4232 43bc
00000370: 97da 8e3d 0787 963c d4bb 5b3d f224 de3d
00000380: 37ba c93d ef2e 033e 6b9a d23c ebc8 4c3d
00000390: 99a7 0fbe f392 53bc 8332 17bd acfb 71be
000003a0: ec6a 0f3e f3bf a4bd ca04 993c 3b50 b5bd
000003b0: 20ac afba c73d 833d f834 3a3c e6ae 503d
000003c0: 2b17 e5bd 2b14 7dbc a253 753b 108c 2cbd
000003d0: 9baa 463e f112 9cbc 6698 303d a6e5 f33c
000003e0: 9399 18bb 7333 4c3c 7afd 963c 77ba 1dbc
000003f0: 8456 cfbb c0d5 d63c 4c4f 0cbd 2cf4 f63b
0.050430357 -0.047057852 -0.04201375 -0.09922127 -0.04253263 -0.050806757 0.055435095 -0.011884825
0.016127866 -0.14938895 0.035845455 0.015739458 0.023209553 -0.12597905 0.09153446 -0.0008113229
-0.016973253 -0.013134814 -0.059383593 -0.08627415 -0.016899165 0.018355163 -0.03461356 -0.067025185
-0.01845846 -0.07195598 -0.051604602 0.028853508 0.02423647 0.048614033 -0.09228012 0.030950267
0.14723411 0.13198467 0.072643444 -0.053386867 -0.038933 0.090547994 0.036849618 -0.019551186
-0.052524578 -0.083654955 0.031049667 0.032207243 -0.08205194 -0.013816693 0.050638266 -0.077174395
-0.028676145 -0.0005472654 -0.05730594 0.11493042 0.070484266 -0.008879579 -0.045374062 -0.007345291
0.014970035 -0.026908288 0.063272014 -0.05754615 0.16201998 0.14936097 -0.011167389 -0.13854504
-0.04990234 0.24413744 0.046846278 -0.04859254 0.037539188 -0.04305596 0.04539012 -0.053492974
-0.008413432 -0.03145561 0.13590713 -0.005750694 0.025107073 0.012980062 0.005298142 0.07727894
0.11298997 -0.116836846 -0.03804969 0.007057733 -0.052432336 0.011121876 -0.009092382 0.032154273
-0.03238255 0.060116716 0.043998178 -0.05370576 -0.10005595 0.11910956 0.032914273 -0.011904187
-0.1380536 0.036982995 0.5703815 -0.2250013 0.19696578 -0.0005070055 -0.017526645 -0.096573874
0.005695768 -0.014895784 -0.007815656 0.010416472 -0.014608018 -0.12096078 0.07903535 -0.061886802
0.03270941 0.08780648 0.027693614 -0.013292809 -0.012099409 -0.047043327 0.054573778 0.026494006
0.031234015 0.00042003507 0.06731828 -0.025010053 0.03552548 0.058359247 0.033521663 0.008199067
-0.018914938 0.015741697 0.049325258 0.120124005 0.07597947 -0.08023564 -0.14534341 -0.001508562
0.04701144 0.021232175 -0.017968995 -0.048182905 0.106824 0.17358053 0.02865706 0.050980084
-0.0031848056 0.008943826 0.062144853 0.057901755 0.059102207 0.059859306 0.026197338 0.057552546
0.012847606 0.12420544 0.06221447 0.093259044 -0.006338193 -0.0062187007 -0.04311046 0.08387556
0.012389002 -0.024421817 -0.15578993 -0.009426856 -0.16811256 0.05103267 -0.03413311 -0.073351055
-0.030185198 -0.15554288 -0.009161622 0.008318157 0.021718659 -0.19960083 -0.02642828 -0.00026150348
0.017956657 0.010232514 -0.037670422 0.039785318 0.087987654 0.024548033 -0.03180194 0.02532581
-0.05628189 0.060581982 -0.15775977 0.07708658 0.008080875 -0.027633518 -0.012501358 -0.03658888
0.16937341 -0.062356748 0.039132487 -0.2161672 0.02217167 0.2507263 0.1005111 -0.048071846
0.026066942 -0.06486756 0.021020096 -0.036211558 -0.070085734 0.018764677 0.063154444 -0.09067517
-0.058418218 -0.007718473 -0.09731588 -0.18521243 0.13904892 -0.01250924 0.0030073659 0.011397619
0.044179104 -0.0042666304 -0.036541186 -0.011913838 0.069752865 0.018374933 0.053645924 0.108468905
0.09849971 0.12810872 0.025708398 0.049996298 -0.14028777 -0.012913453 -0.036913406 -0.23631161
0.14005631 -0.08044424 0.018679041 -0.08853193 -0.0013402738 0.064082675 0.011365168 0.050948046
-0.111860596 -0.015446703 0.0037433882 -0.04212576 0.19401018 -0.019052 0.04311409 0.02977259
-0.0023284897 0.012463438 0.018431414 -0.009626976 -0.006327452 0.02622497 -0.03425531 0.007536432

fcs1.bias f4 [400]
00000000: 31eb 613d 16c2 38be 7323 acbe 0339 7f3c
00000010: 9f16 83be 9bab b9bd 2dea f5bd 53b6 923d
00000020: 9482 b2bd 324c 4fbe 73e6 87bd 988d 4cbe
00000030: ef1e bcbc 08ff 16be d999 86bd c091 77be
00000040: c0fa 51be 9942 acbd 6626 2cbe 4a09 3fbe
00000050: 804b 5abe b7f7 c73d 340f c73d 3f39 3c3d
00000060: 5930 04be 79ed a8be 9391 543d 0d99 843d
00000070: 94aa 37be d75b e7bd bce9 e0bd f014 bebc
00000080: 20d8 11be 5a96 a9be 0263 d3bd e5fb 87be
00000090: b40d c23c beb2 ba3c 6046 16bd 0143 7ebe
000000a0: 7532 54be f877 0ebe 77c2 79bd b61f 18bd
000000b0: b6c7 87bd 58ed 66be e39e 00be 50fa 31bd
000000c0: e335 11be 262c d4bd ce85 87be 174a 93bd
000000d0: d7ee 7cbd 5da8 1dbe 86f7 a8be 2b33 90be
000000e0: 35d0 50bd d75a 75be 4722 febd fe6d 16be
000000f0: 85db 55bd 9879 e9bd 0721 99be c317 f5bb
00000100: 54f0 323d 5bde e1bd 66c8 5fbe a81b 683d
00000110: 9cb5 973c 7fb6 aabd f449 e0bd 2915 08be
00000120: 8ed0 a3be ffa4 96bc 0bf6 873d b745 81be
00000130: c1b2 033d 6336 debd 61c2 abbd 5f13 43bd
00000140: e5d0 703d 58e2 033d b8b5 9ebe 375e 89bd
00000150: 9f26 d8bd c7ef cdbd 33f5 c1be 8b64 49be
00000160: 0173 d3bc 827c a8bd 3cd3 f4bd c695 4e3d
00000170: 6c1b 5abd 1dca 65be 1387 e53d 8044 04be
00000180: aab8 163d 0ced 6cbe 0f93 0bbe 91bf 35bd
00000190: 5d42 e4bd 64c1 62bd e4c4 3fbe 250d 0bbc
000001a0: 2c05 9bbc 4024 0bbe b328 77be 1ab7 49be
000001b0: c875 98be 6525 98bd bc89 25be 1f7f 42be
000001c0: 9807 73bd 11cf 203e 9ce6 74be 7da5 803d
000001d0: 8e5b 3fbe 177d 9ebe 0e5e 14be 5d0b 28be
000001e0: d131 0b3d 2b37 19be a941 9ebe e2bc 833d
000001f0: 60be de3b 96ca 17be 7364 68be 2a92 eebd
00000200: b18d 4bbd cefd f5bd 7077 a2bd bec2 a03c
00000210: 7b05 55be 6f28 7dbd a2d1 f33c e16e 8e3c
00000220: 3bbc edba 2ac0 d5bd 2ff7 e0bd 7605 77bd
00000230: 865c 19be bb29 53be 63ac 2abc 709f 0bbe
00000240: 7b5f b7be a5af 05be 4784 35bd 81a2 6fbe
00000250: be08 9f3c b580 2cbe 7cf0 bdbd bf31 5e3d
00000260: 0c41 43bd 03d1 79be 3762 93bd 1c72 81be
00000270: a145 8c3d ad8b f5bc a394 89bd 32e7 28be
00000280: 1e42 8fbe af05 9fbe 5aa9 82bc 7e34 15bd
00000290: 68ae 76bc c3ca 96be 6469 01bd d969 54bd
000002a0: 2a34 4fbe d860 843e 484c 51be cd3d e8bc
000002b0: d442 66bd cece 143e a141 93be 61b9 fcbd
000002c0: 3385 4dbe d02b 41be bd22 dabd a48e 9abe
000002d0: 1850 29be c987 6c3e cffc 90be cf01 16be
000002e0: 46a6 afbc b608 3bbd bccd 0fbe 67ac 1fbe
000002f0: 2ef9 ccbd fedc 84be 0dc7 04bd 9b11 22be
00000300: 9498 63be bd0b 8f3d 08f9 6ebe 07d4 2dbe
00000310: 76af b83d 8ad3 193e 751a 873c 4567 893d
00000320: b20f f6bd 2f7a 643c feb8 8dbe a645 c1b8
00000330: 19e3 df3d 5b85 c13c 0d88 b1bd 5514 acbd
00000340: 3efc 75bd 1aac 6bbe e88d 46be 33dd 2a3c
00000350: 0199 59be 0d76 4cbe 3ce9 7e3c 1bbb 5fbe
00000360: 041a 6bbe 6dd1 f9bd 59a1 7cbe 93f3 c1bd
00000370: 206e 29be 9d7e ccbd 4db9 e9bd 1a51 f1bd
00000380: ccb8 00be 8fde 3ebe 2b4a 2ebe 8db7 6abe
00000390: 354b c4bb d671 3e3c 70d2 a6bd 76cf adbd
000003a0: add4 8cbe c3e8 54be 53c5 9ebd 39b7 91bd
000003b0: 0c5f 33be e7a0 e2bc be1d 7f3d 19bd 3abe
000003c0: 1fc9 f6bd f2dc 69be 36fc 763c fd6b 193b
000003d0: ee41 73be b76a e2bc 0e37 90be b417 babd
000003e0: 65d4 2bbe cb03 9cbe 9ae8 cdbd 15b0 cbbd
000003f0: 2a07 fbbd 02b8 46bd a849 88bd 9222 35bc
0.055155937 -0.18042788 -0.33620796 0.0155775575 -0.25603196 -0.09065934 -0.12007556 0.07163682
-0.08716312 -0.2024391 -0.066357516 -0.19975889 -0.022963969 -0.14745724 -0.06572313 -0.24176693
-0.2050581 -0.0841114 -0.16811523 -0.18655887 -0.21317863 0.09764045 0.09719697 0.04595303
-0.12909068 -0.32993677 0.051896643 0.064745046 -0.17936164 -0.11296814 -0.10982081 -0.023203343
-0.14242601 -0.33122522 -0.103216186 -0.26559368 0.023688175 0.022790309 -0.03668821 -0.24830247
-0.20722373 -0.13912952 -0.06097647 -0.037139617 -0.06629889 -0.22551477 -0.1256061 -0.043451607
-0.14180712 -0.10359983 -0.26469272 -0.07191866 -0.061751213 -0.15396257 -0.33001345 -0.28164038
-0.05097981 -0.23960434 -0.12408882 -0.14690396 -0.052211303 -0.11400145 -0.2990801 -0.0074796393
0.043686226 -0.11028739 -0.2185379 0.056667 0.018519215 -0.083355896 -0.109516054 -0.13289322
-0.31995052 -0.018389223 0.06638726 -0.252485 0.032152895 -0.10850217 -0.08386684 -0.047625896
0.058792967 0.03219828 -0.30998015 -0.06707423 -0.105542414 -0.100554995 -0.37882385 -0.1966726
-0.025811674 -0.08226873 -0.11954352 0.050435804 -0.053248808 -0.22440381 0.11207404 -0.12916756
0.036797203 -0.23137301 -0.13630317 -0.044372145 -0.1114547 -0.055360213 -0.18727452 -0.008487021
-0.018923365 -0.13588047 -0.2413662 -0.19698754 -0.2977736 -0.074290074 -0.16165823 -0.18993805
-0.059333414 0.1570399 -0.23916095 0.062815644 -0.18687269 -0.3095481 -0.14489004 -0.16410585
0.033983056 -0.14962451 -0.3090947 0.06432511 0.006797597 -0.14823374 -0.22694568 -0.11648972
-0.049695674 -0.120113 -0.07932937 0.01962411 -0.20802872 -0.06180614 0.029763047 0.017386856
-0.0018137762 -0.10437043 -0.109846465 -0.060307942 -0.14976701 -0.20621388 -0.010417077 -0.1363504
-0.35815033 -0.13055284 -0.044315603 -0.23401834 0.019413348 -0.16845973 -0.092743844 0.05424666
-0.047669455 -0.24396138 -0.07196467 -0.2528237 0.06849218 -0.02997383 -0.06717803 -0.16494444
-0.2798013 -0.31059024 -0.015949894 -0.036427014 -0.01505623 -0.2945157 -0.03159465 -0.051858757
-0.20234743 0.25855136 -0.20439255 -0.028349781 -0.056216076 0.14532015 -0.28761008 -0.12340046
-0.20070343 -0.1886437 -0.10651157 -0.3018695 -0.1653446 0.23098673 -0.28317878 -0.14649127
-0.02144159 -0.045662604 -0.14043325 -0.1559311 -0.10008465 -0.25949854 -0.032416392 -0.15827028
-0.22226173 0.06984661 -0.23337185 -0.16975413 0.090178415 0.15022102 0.016492108 0.0670915
-0.120147124 0.013945146 -0.276802 -9.21593e-05 0.10931987 0.02362316 -0.08668528 -0.084023155
-0.06005501 -0.2301487 -0.1939007 0.010428715 -0.21249773 -0.19966908 0.015558537 -0.21848719
-0.22959143 -0.12198148 -0.24670924 -0.09470286 -0.16545916 -0.09985087 -0.114122964 -0.11783047
-0.12570494 -0.18639587 -0.1702048 -0.22921582 -0.0059904107 0.01162382 -0.081456065 -0.08486836
-0.2750601 -0.20791917 -0.0775248 -0.07115025 -0.17516726 -0.027664615 0.062284224 -0.18236198
-0.120500796 -0.2283819 0.01507478 0.0023410313 -0.23755619 -0.027638776 -0.28167003 -0.09086552
-0.16780241 -0.30471644 -0.10054131 -0.09945694 -0.12257226 -0.048515327 -0.06654674 -0.0110556055

fc2.weight f4 [300, 404]
00000000: 590a 16bb 9836 5dbc 9598 8abe 5630 f3bc
00000010: 9edf ddbd 1f96 0cbc 83e1 113d caae 20be
00000020: 0a25 9abd 112e 6cbd e3ea 523d 1f0e 343c
00000030: 40ea a3bd 4c43 f03c ae7f d7bd a49f 9dbb
00000040: e990 9fbc a8e2 03be 3c20 c0bc 35b7 a4bd
00000050: c2ef 763c b53b 77be 0416 c73d b004 d3bc
00000060: e026 0fbe bc17 ad3d 9001 b93d daea ee3b
00000070: ab8f d33d b2f9 66be bb92 2e3d 7d90 febc
00000080: 8b9b 713d 375a dfbc 5c50 2ebc f171 233d
00000090: ed91 e53d ec40 2d3d c2b8 ba3d 0ab5 cf3d
000000a0: 1fc8 50be 717e 0c3d aab9 80be 1691 87bd
000000b0: ea2a 163d d1f3 c3bd 0441 b53b 116a 13be
000000c0: 166b b43b 4310 123d 8d9f 253e 8760 9b3d
000000d0: d2b2 e6bb 8cbb 42be 69b7 5abe 1126 32bd
000000e0: c0d4 40bd e02c a2bd 1cf3 07bd 635d 8ebc
000000f0: 0958 1a3e fd81 213d 46c4 373c 1cfd 80bd
00000100: d4b2 583d beff 323d 2387 aebd 502e 9bbe
00000110: 6951 ae3b c660 243c 058a 91bd cf12 eabd
00000120: 008f 95bd 5d95 933d 341e 5cbd d4d7 1c3e
00000130: c920 0c3e a2df 323d 7461 2dbc ccc5 ae3c
00000140: 28a3 343c e16b 18bc 7667 21bc 105d e837
00000150: 1b3e 7cbe 6655 f53c c583 d23d fe9e fb3c
00000160: 305c d7bd a72f 00be 32ad b1bd 3e3f 0c3d
00000170: 0baf 833d 0135 a33d 8f90 8c3d 0ff3 843d
00000180: 5896 5d3d 2cf7 8a3c ca8a 10be a4c6 023d
00000190: c814 e13a 58a7 ce3d 5b61 b0bc 6b74 0e3e
000001a0: 31c7 113e 075f a5bd de94 9dbd 9290 e4bc
000001b0: 694e 9fbd 3d1f 0d3e d474 c53b 3edc 493d
000001c0: a3ef 50ba 1687 d03d a973 bdbd b164 1bbe
000001d0: 0ebb 70ba 0057 13be bafe 9f3c 5b0d fd3b
000001e0: a84a b4b9 71aa c03d 65ef 5fbd 8f25 1abd
000001f0: 5a66 24be 3128 cbbd 4bb9 673d c1ca 1bbd
00000200: 31f7 c0bd 832a 343d 2bd0 bebc 025f 48bd
00000210: c69a 67bd a8c0 ff3c 0574 5b3d bf40 833c
00000220: 15bf d53c 6caf 26be 528e 3e3d f878 bdbc
00000230: d866 603d d36d f23c 8542 cbbc cf3c 3ebc
00000240: c25f a83b 812b a0bd 6ae5 613d 2f5b e63c
00000250: 1239 c73c 6116 fa3d b07b a5bd fe46 43bd
00000260: ed35 a13c 878e b73c c15a 2abd f677 993d
00000270: 0036 5ebe 635d d9bd 6bcb 2d3c a669 cabc
00000280: a9c2 d7bb 4481 2e3d fd5b 253e eaf2 e1bc
00000290: d7a4 cfbc b638 e6bc 41d6 43bd 53be 243d
000002a0: 7b57 833c 3a59 8c3c 84ff da3d 8e2a 993d
000002b0: 0fe6 a3bc 2cd4 b93d 44d8 8bbc bccf f5bd
000002c0: 9e9b 4fbd 2088 30bd 1c90 573c cadc 84bd
000002d0: 0862 8cbd 3233 66bb cb7e 483d 7d55 873c
000002e0: 953d c23d b011 e63c dfa8 f63d 0214 b6bd
000002f0: 27c3 b9bb b070 0abe 547c 40be 9769 26be
00000300: bd31 983d 4c19 933d 2c1b bbbd d41c 183d
00000310: 478c 9b3d 437b 1ebe 8555 b53d 0be1 75bb
00000320: b6ce 9ebd e741 b33d 873c 87bc 175e 233e
00000330: 3cc2 6b3d 0cdd 9aba dad9 663d 2797 ecbd
00000340: 1029 aebc 22c9 623d 3cee 86bd 7e46 13bd
00000350: 1b07 43bd 5dea 9f3d edf3 bcbd d284 1c3e
00000360: f57a 7ebd ea2e 58bd 14e8 3c38 7156 32be
00000370: f8ae ba3d 192c 3f3d 11d3 733d 67d6 24bd
00000380: 894d 6cbd ed48 bd3b ae5d 02bc b223 0f3b
00000390: 044d b0bc ae57 67bd 4612 8ebd f594 4b3b
000003a0: ce01 6f3d 284a 91bd cd7c 5d3c 8fa2 9ebb
000003b0: 606e ea3d c88e db3d eebe 0a3d 57bd cfba
000003c0: 3588 a7bd 611a eebd eca7 833d 562a 093d
000003d0: a15f 01bd 5b77 703b 844d 62bc c5e2 afbd
000003e0: e85e 62bc 4bae c83d 2e4d cfbc e1b7 2ebd
000003f0: 364d 5e3d 13c6 b0bd 720a e83c 2ed9 cbbc
-0.0022894351 -0.013501786 -0.27069536 -0.029686134 -0.10833667 -0.0085807135 0.035615455 -0.15691677
-0.07526596 -0.05766112 0.051493537 0.010989695 -0.08003664 0.029328965 -0.105224 -0.0048102904
-0.019478278 -0.12879431 -0.02345287 -0.080427565 0.015071811 -0.2414387 0.09720996 -0.025759071
-0.13979673 0.084517926 0.09033501 0.00729118 0.10330137 -0.22556189 0.0426204 -0.031074757
0.058986228 -0.027264697 -0.010639276 0.039903585 0.11209474 0.042298242 0.09117271 0.10141952
-0.2038884 0.03430027 -0.2514165 -0.0661947 0.03666202 -0.09567989 0.005531432 -0.1439593
0.0055059297 0.03566004 0.16174145 0.075867705 -0.00704036 -0.19016856 -0.21359028 -0.043493334
-0.047077894 -0.079187155 -0.03319083 -0.017378515 0.15072645 0.039430607 0.011216229 -0.06298277
0.05290492 0.043700926 -0.08521869 -0.3030877 0.0053197634 0.010032838 -0.07106403 -0.11429369
-0.07302666 0.07206223 -0.05373974 0.15316707 0.13684382 0.043670304 -0.010582317 0.021334551
0.011025228 -0.009303064 -0.009851327 2.769989e-05 -0.24633066 0.029947948 0.10279039 0.030715462
-0.1051563 -0.12518178 -0.086756125 0.03424 0.06429871 0.07969094 0.0686351 0.06491672
0.054098457 0.016963564 -0.14115444 0.03192772 0.0017172331 0.10090512 -0.021530798 0.13911597
0.14236142 -0.08074766 -0.0769441 -0.027900968 -0.077786274 0.13781448 0.00602589 0.049282305
-0.0007970279 0.101820156 -0.09250576 -0.1517513 -0.0009183147 -0.14388657 0.019530643 0.0077225394
-0.000343879 0.09407509 -0.054671664 -0.037633475 -0.16054669 -0.09919775 0.056573194 -0.038035158
-0.09422148 0.043985855 -0.023292622 -0.04891873 -0.056544088 0.031219795 0.05357744 0.016022084
0.026092092 -0.16277856 0.046522446 -0.023128971 0.05478558 0.029593384 -0.024811992 -0.011611178
0.0051383683 -0.07820798 0.055150427 0.028119652 0.024319205 0.122113 -0.08080232 -0.047675125
0.019679034 0.02240683 -0.041590456 0.07493584 -0.21700287 -0.10613515 0.010607581 -0.02470858
-0.0065844846 0.042603746 0.16148372 -0.02758165 -0.025347156 -0.028103214 -0.04781175 0.04022057
0.016032925 0.01713239 0.10693267 0.0747882 -0.020007161 0.09073672 -0.017070897 -0.12002513
-0.050685517 -0.04309857 0.013156917 -0.06487425 -0.068546355 -0.003512573 0.048949044 0.016520256
0.09484402 0.028084606 0.12043928 -0.08890535 -0.005669016 -0.1351955 -0.18797427 -0.16251217
0.07431362 0.07182559 -0.09136042 0.037136868 0.07595115 -0.15476708 0.08854202 -0.003751817
-0.07754271 0.08752804 -0.016508354 0.15953861 0.057558283 -0.0011815145 0.056360103 -0.115522675
-0.021259815 0.055367596 -0.06588408 -0.0359559 -0.0476142 0.07808373 -0.09226213 0.15285042
-0.06212898 -0.052779116 4.5038832e-05 -0.17415787 0.09115404 0.046672914 0.05952746 -0.040243533
-0.05769113 0.0057765157 -0.007956905 0.0021841344 -0.021521099 -0.056480102 -0.06937079 0.0031064127
0.05835133 -0.07094222 0.013518524 -0.004841156 0.114468336 0.10720593 0.03387349 -0.0015849274
-0.08180276 -0.11626125 0.06428513 0.03348764 -0.03158534 0.0036692235 -0.0138124265 -0.08588175
-0.013816573 0.09798869 -0.025305357 -0.04265583 0.054272853 -0.0863153 0.028325293 -0.024883833

fc2.bias f4 [300]
00000000: b3ef ebbd adc3 cbbd ed08 943c f2ab 6b3c
00000010: e65d 403c 0c9f 583b 3ba3 73bd 86d6 8f3e
00000020: 6372 11bd fdba 0fbd 951e 003e 22bb 173e
00000030: 817f cfbb 46d4 99bb 9239 5cbc e8bc a6bd
00000040: a0fb 803e a166 0a3c ad44 b83b 3284 76bd
00000050: 1f7c eabd a313 4b3e 17c0 a0bd af16 e8bd
00000060: 8408 ef3c 2700 633e f3ea 88bc 1a80 2d3d
00000070: ea7b 4c3e 9bc4 eebd 733d f5bd ff34 34bd
00000080: 536b 07be d967 d83d f1a8 12be be59 d23d
00000090: bd47 383a 8ea2 d83d 84ef 463d dab1 a6bc
000000a0: 0ede 99bd 85a7 5d3b cf37 8cbd dc6d 6f3c
000000b0: 19c1 37bd 8852 90bd f504 b13c d5f2 88bd
000000c0: 52ee cf3d fa62 a03c 2142 83bd e581 c3bd
000000d0: 8537 96bc 82cd 35bd f5d5 133e cc35 053e
000000e0: bc1a 70bc a1fe 0dbc b93c 12be 472b ccbd
000000f0: e4f7 dabb 6629 17bd cb2d b6bd 5acc 493d
00000100: f517 b4bd 64cc 253c 48ad 303e 1f51 763d
00000110: 7e19 fbbc 53cd 5bbd 3eab 7dbd a629 9a3d
00000120: 5cb3 ddbd cfd5 bebd 9503 aa3e 8b08 4b3d
00000130: 4b82 d13d 240b 863c 7e2e 273e 0dc0 e1bd
00000140: f5f3 4c3e 8abe ecbd cfc9 cc3d e7d9 88bc
00000150: 745d 083e 4fa5 233e 5b83 4f3e 4740 35bd
00000160: 6672 c7bc 1fc2 a6bd 5872 6dbd 87b8 97bd
00000170: b0d8 7d3b bd5f 4bbd e487 763c 7116 bebc
00000180: 77d2 ffbc c173 b83d 0382 c9bc 77f8 59bd
00000190: 2c71 f53d 70f9 0b3e 16e6 a73d 75df 2e3e
000001a0: fe3c f0bc 5f98 3f3c e20b 99bd f58a ccbd
000001b0: 1f67 2abd d406 703e 6a77 18be 5138 08bd
000001c0: af58 9ebd ef97 5d3b 0081 843c 4b15 393e
000001d0: a52c 02bd 255e 93bd bc2d aabc 5871 fcbc
000001e0: ec06 1f3e 4b94 f1bc fa78 323e e3f2 87bd
000001f0: a4c5 23bd 9fd3 20bd 4d75 fabc 5e73 73ba
00000200: 0e39 423e c823 843c bd28 2ebd 70d6 9ebd
00000210: c3a1 acbd 4ac6 bdbd c56f b6bc d9d4 043e
00000220: 00b2 dc3d 5505 2dbe 036e 6b3e 7897 16bc
00000230: 02a3 6e3e bccd b5bd 3cc5 c1bb f9e5 fc3d
00000240: 73dc aa3d 3713 a7bd b640 bcbc 216f 97bd
00000250: 827c 523d a304 60bc 0324 fd3d 5011 313c
00000260: c3bd 12be 4087 003e f487 2ebd 2b89 04bd
00000270: 11d0 343e 762e aa3d 6455 f23d 456a 6ebc
00000280: a047 ca3d 51c7 45bd 71ca 8c3d e4e1 dd3d
00000290: f956 99bc 3413 203e d834 57bb 4c05 0cbd
000002a0: f48e 9e3d 8149 d8bc c3e6 3ebd 102a febb
000002b0: 27bb 16be 7f5b c33d df44 413d ee20 183e
000002c0: f02e 07be 74f2 72bd 4716 71bb e7d6 683e
000002d0: fd11 16bc 69bb ffbc f79f e7bd e06e f03b
000002e0: aae4 e33d e985 16bd 8b55 63bd 4572 5a3d
000002f0: bf09 923b 6fde 9a3c dfe7 d73d 50fa f13d
00000300: c18c c43d 9428 e5bd e68e 283d f184 f8ba
00000310: 3d03 ae3c c709 693e 9858 04bd 1e1c 773d
00000320: f85e 443d f4ac f3bd d583 263c 31d5 2ebd
00000330: 6818 b4bd cc70 233c 1fc9 413e 3323 8fbd
00000340: a936 443d 89dd 88bd 057d 5d3e 51c7 e5bd
00000350: dcdc 80bc 0672 d1bc 33e3 bbbd 4ef3 123e
00000360: 2f70 9fba 82fb 1f3e 324f 92bc 1005 8bbd
00000370: b699 c23d c211 04be a234 533d d385 a23c
00000380: fb05 b73d 57d0 babd 6fd7 173d c1e3 c8bd
00000390: aad9 0bbe 7282 1ebd 197d e8bc 766d 5fbd
000003a0: 1fd3 8dbd d76e bcbd fee6 b6bc 0e2e 413d
000003b0: 0914 1e3e 9297 743d 5174 6cbd 44ad 6c3e
000003c0: afd7 383e 1a89 873d 8e76 2ebd 0a58 84bc
000003d0: 1e8d 07bc 3358 b43d 443b 043e 5d62 dc3d
000003e0: 6583 64bd ad9b 0dbe f685 e8bc 4034 5ebb
000003f0: a32c fa3d 9e1c 3abc 1854 37bd 4a02 bcbc
-0.115203284 -0.099494316 0.018070662 0.014384257 0.011741137 0.0033053784 -0.05948184 0.28093356
-0.03550948 -0.035090435 0.12511666 0.14817479 -0.0063323383 -0.0046944944 -0.01344146 -0.081415
0.25191975 0.00844732 0.005623421 -0.060184665 -0.114494555 0.1983171 -0.07849138 -0.113324516
0.029178865 0.22168027 -0.016713595 0.042358495 0.19969144 -0.11658593 -0.11974611 -0.043995854
-0.13224535 0.10566682 -0.14322259 0.10271023 0.0007029733 0.1057788 0.048568264 -0.020348478
-0.07513057 0.0033821773 -0.06846582 0.014613595 -0.044861887 -0.070469916 0.021608809 -0.066869415
0.10152878 0.019578446 -0.064090975 -0.0954626 -0.01833702 -0.04438544 0.14437087 0.13008803
-0.0146548115 -0.008666665 -0.14280976 -0.09969192 -0.006682383 -0.036904715 -0.08895453 0.04926715
-0.08793632 0.010119531 0.17253602 0.060135957 -0.030651804 -0.05366261 -0.061930887 0.07527475
-0.10825226 -0.093181245 0.33205858 0.049568694 0.102299295 0.016362734 0.16326329 -0.11022959
0.20014937 -0.1155978 0.099994294 -0.016705466 0.133169 0.15981029 0.20264952 -0.044250753
-0.024346542 -0.081424944 -0.057970375 -0.07408243 0.0038733892 -0.04965185 0.015047047 -0.02320406
-0.031228287 0.09006453 -0.024598127 -0.05321547 0.119844764 0.13669372 0.08198182 0.1707743
-0.029325958 0.011694043 -0.074729696 -0.099874415 -0.04160225 0.23440105 -0.14889303 -0.033256833
-0.07731759 0.0033812483 0.016174793 0.18074529 -0.031780858 -0.07195691 -0.020773761 -0.030815765
0.15529984 -0.029489657 0.17428961 -0.06638124 -0.039983407 -0.039264318 -0.030573511 -0.00092869054
0.18967077 0.016130343 -0.04251932 -0.077557445 -0.08429291 -0.09266336 -0.022270093 0.1297182
0.10776138 -0.16896565 0.22991185 -0.009191386 0.2330437 -0.08877131 -0.0059134047 0.12348551
0.083428286 -0.08157962 -0.022980075 -0.07394243 0.05138827 -0.0136729805 0.12360384 0.01080735
-0.14330201 0.12551594 -0.042610124 -0.032357376 0.17657496 0.08309643 0.11832693 -0.014551704
0.09876943 -0.048285786 0.0687455 0.10834101 -0.01871823 0.15632325 -0.0032837894 -0.03418474
0.0774211 -0.026402237 -0.04660679 -0.007756479 -0.1471983 0.09538936 0.04718482 0.14856312
-0.13201499 -0.059313253 -0.003678696 0.22738229 -0.009159562 -0.031217294 -0.11309808 0.007337436
0.111275986 -0.0367488 -0.055501502 0.053331632 0.004456728 0.018904893 0.10542273 0.118153214
0.09597159 -0.1118938 0.041151904 -0.0018960518 0.021241779 0.22757636 -0.032311052 0.06032955
0.04794213 -0.118982226 0.010163267 -0.042683784 -0.087937176 0.009975623 0.18924378 -0.069891356
0.04790369 -0.066828795 0.21629722 -0.11219657 -0.015730314 -0.025567066 -0.09174194 0.14350626
-0.0012164171 0.15623286 -0.017860029 -0.06788075 0.09501974 -0.12897399 0.051563866 0.019839203
0.089366876 -0.09121769 0.037070688 -0.098090656 -0.13657251 -0.03869862 -0.028379964 -0.05454775
-0.06925034 -0.092008285 -0.022326943 0.04716306 0.1543733 0.05971486 -0.057728115 0.2311297
0.18051027 0.06617947 -0.04259353 -0.016155262 -0.008273391 0.08805885 0.12913233 0.10760949
-0.05578937 -0.13828917 -0.02838419 -0.0033905655 0.12215545 -0.011359362 -0.044757932 -0.02295031

fc3.weight f4 [1, 300]
00000000: 33c0 6cbd 09aa 56bd a7eb 413d 4078 683d
00000010: c20b a13d d6ba 153d c969 013e e40f 903d
00000020: 1131 f4bd ef5f 843d 9538 a23d ae6d 4c3d
00000030: 68b8 d03d b4e3 7fbb 1861 babc 242a bbbd
00000040: f0b1 c13d bbd6 683d 8ee2 72b9 e4ca 083a
00000050: 2c63 31be 0abb 313d d0f4 f9bd bfba 2ebd
00000060: 24cb bc3c da7c a93d 14d8 6dbd 3bf1 da3d
00000070: 6a4d ac3d 1bd9 1cbd d771 c9bd 5415 a1bd
00000080: 7cbd 22be 69ce ce3d 54ef 8ebd 1950 c73d
00000090: 9455 fbba 600b 2c3d f3f0 4f3d 66eb 4cbe
000000a0: fdda 0abe bb86 c0ba 4411 b039 501d 503d
000000b0: 4f9c 5abd bae7 eeba fad6 41ba ff09 d43c
000000c0: d575 833d d913 af3b 55b9 b7bb f332 62bd
000000d0: a860 443c 83ec bb3d 172a 553d 4695 0c3d
000000e0: 7519 943d 0b51 133e c6a0 82bd 2120 5abd
000000f0: 458f c1bd eb59 25be 9590 b9bd 0484 2a3d
00000100: 1bb3 10bd ae91 0f3d 9f0e 7e3d b8c8 6fbe
00000110: 3ccd a3bd 6028 aebd 895d 983d 33c2 b53d
00000120: 52b2 c3bd d762 63bd a590 de3d ab43 5b3d
00000130: 441f 0d3d dc1b a73d 68f8 473d 42cb 58be
00000140: 209c 383d 4f39 65bd df7c 0d3d 33ea 6f3c
00000150: 6557 383d ea2e 093d c5a0 973d 6604 5dbd
00000160: 0947 f4bc d34f d7bd 3248 0fbd 62d9 dfbd
00000170: 2a4f 643d f9e2 fbbb 290b cd3d 22b0 0f3b
00000180: c649 37ba 2550 683d 36c2 e53b 3d90 94bd
00000190: 5420 243d 3718 263d 15ed 9d3c 1a4c b33d
000001a0: 4a42 6ebe 9122 623b 9865 acbb b0a3 debd
000001b0: 3ab4 063c ba39 b53d e236 42bd 69b9 8a3c
000001c0: 0491 abbd 5443 9b3b 0393 983a 0ba7 b33d
000001d0: 96a5 65bd c9a1 043c 3b89 e9ba 89e3 d63b
000001e0: f33f 213d 9410 2f3b becb 893d ca64 64bd
000001f0: 4d9a 6cbc 556e c0ba 357f aebb 6af7 903d
00000200: fbd8 7d3d 6ffc 583c 7530 09bb 41ac 5fbe
00000210: 0a40 79bd fcd6 1dbe cf3c bc3b 2ba7 233d
00000220: 7483 243d 7a1d b2bd ef84 b63d 2482 94bd
00000230: f2e6 9a3d f7a4 2dbd e299 2c3d 0376 523d
00000240: 2e71 b73d d4de 91bd 1478 38bd 4aca dcbd
00000250: e949 a43d 0497 903d 29f3 963d 02f8 90bb
00000260: 1f06 43bd 2bd3 783d 8d1c 00bc 9816 28be
00000270: 82e4 483d a3b2 8c3d 07f8 283d 2b8a 76bd
00000280: ef57 603d d749 09bd 6173 2b3d 2f77 1b3d
00000290: 74dd d73c 4012 d23d b8f8 043e afde 3dbd
000002a0: b0c0 563d dc2d 27ba 6d0f a6bd 7b84 06bd
000002b0: b322 d4bd ff85 373d f870 f33c 060e 443d
000002c0: 3664 f0bc 005c 4e3c 8220 eabd 92de 843d
000002d0: efb6 48bd 1790 5abd 8fd9 4fbd 06b7 b63d
000002e0: c586 6c3d f464 24be c57b 9b3b 0426 043d
000002f0: 2277 9f3a 5a3a 7bbd 1526 713d a5cf 813d
00000300: 0714 413d 00d1 8dbd 10e5 283d 0cc1 913d
00000310: 6802 3f3d 7199 843d 75c8 1d3b 661f 823d
00000320: 6ab2 083d 54dc 19be 87b8 75bc 2ee0 043e
00000330: 4ec5 77bd 7b52 10be d8e3 873d 4f2d 06be
00000340: 4ed6 ef3d e7be 4bbe 4acc 8e3d 5a3a 6fbd
00000350: 5e3f e2ba afa3 273d 98ff 4ebd f655 723d
00000360: eb8c 933d 7e55 a33d 4510 2abe 376f 89bd
00000370: 956c 183d 13ec 23bd 73f2 d23d 5c23 2dbe
00000380: 3298 1f3d 7c06 8fbd bb94 913d e4f3 49be
00000390: 294f 1cbd 7965 84bd 8682 d2bd 8160 75bd
000003a0: b395 543b aaab 97bd 5649 073a a71e d03d
000003b0: da15 873d 547b 0b3d 5ef6 7fbd 0e7f 513d
000003c0: f7e2 ca3c 1dc5 4b3d a577 85b9 0403 7e3c
000003d0: 5c70 8a3d 2ca5 7c3d f1c2 983d 556c 163d
000003e0: 2012 49bb eb6e 5bbd 300e ac3c 4118 adbd
000003f0: 6eb4 733d dcaa 3ebd 4865 943d 444d 093c
-0.057800483 -0.052408252 0.047343876 0.056755304 0.07863571 0.036555134 0.1263801 0.07034281
-0.11923421 0.064636104 0.079209484 0.049909286 0.10191423 -0.0039045634 -0.022751376 -0.09138897
0.09457767 0.056845408 -0.00023163317 0.00052182213 -0.17322987 0.043391265 -0.122048974 -0.042658564
0.023046084 0.08275767 -0.058067396 0.10690542 0.08413203 -0.038292985 -0.09836166 -0.07865396
-0.15892595 0.10097963 -0.06979242 0.09732074 -0.0019175285 0.042003036 0.050766896 -0.20011672
-0.135601 -0.001468859 0.000335822 0.050809205 -0.053371724 -0.0018227019 -0.00073944 0.025883673
0.06418959 0.005342942 -0.00560681 -0.05522437 0.011985935 0.091759704 0.052042093 0.034322046
0.07231418 0.14386384 -0.06378321 -0.053253297 -0.094511546 -0.16147582 -0.0906078 0.041629806
-0.03532706 0.03505104 0.062025663 -0.23416412 -0.0799813 -0.08503795 0.074397154 0.08874931
-0.09555496 -0.055514183 0.108674325 0.05353133 0.034453645 0.08159611 0.048820883 -0.21171287
0.045070767 -0.055962857 0.034542914 0.01464324 0.04500522 0.033492006 0.07403711 -0.053959273
-0.029819028 -0.10513272 -0.03498096 -0.10930134 0.05573956 -0.0076869694 0.10011894 0.0021925052
-0.0006991889 0.056717057 0.007011677 -0.07254074 0.040069893 0.040550437 0.019278089 0.087547496
-0.23267475 0.0034505466 -0.0052611344 -0.10871065 0.00822168 0.08848901 -0.04741562 0.016934114
-0.08377269 0.0047382507 0.0011640493 0.08772095 -0.05606612 0.008095213 -0.0017817387 0.006557886
0.039367627 0.0026712762 0.06728314 -0.055760182 -0.014441085 -0.0014681319 -0.005325223 0.070784405
0.061974507 0.013243779 -0.0020933424 -0.21843053 -0.060852088 -0.15414041 0.0057445536 0.039954346
0.040164426 -0.086970285 0.08912074 -0.07251385 0.075635806 -0.04239365 0.04213894 0.051382076
0.08957134 -0.07122579 -0.04503639 -0.10780771 0.0802191 0.07060054 0.07370598 -0.004424096
-0.04761326 0.06074826 -0.007819307 -0.16414869 0.049046047 0.0687001 0.041252162 -0.06019036
0.05477136 -0.033517685 0.04185808 0.03795546 0.026350714 0.10257387 0.12985504 -0.046354946
0.052429855 -0.0006377378 -0.08108411 -0.032841187 -0.10358181 0.044805523 0.029716954 0.047864936
-0.02934466 0.012595177 -0.114319816 0.064877644 -0.049002584 -0.05336007 -0.05074459 0.08921628
0.057745714 -0.16054136 0.004744979 0.032262817 0.0012166242 -0.061334945 0.05887421 0.06338433
0.04713824 -0.06924629 0.041234076 0.07116899 0.046633154 0.06474579 0.002407578 0.06353645
0.033373274 -0.15025455 -0.014997608 0.12976143 -0.0604909 -0.14093964 0.066352546 -0.13103221
0.11710797 -0.19897042 0.06972559 -0.058405258 -0.0017261317 0.040927585 -0.050536722 0.05916401
0.07204612 0.07975291 -0.16607769 -0.06710666 0.037212927 -0.04002006 0.1030015 -0.1690802
0.038963504 -0.06983659 0.07108446 -0.19721943 -0.03816143 -0.06464667 -0.102788016 -0.059906486
0.003243786 -0.07405789 0.0005160769 0.101620965 0.06595965 0.03405316 -0.062490813 0.05114656
0.024766428 0.04974853 -0.0002545688 0.015503649 0.06759712 0.061680958 0.07459057 0.036724407
-0.003068097 -0.053572576 0.021002859 -0.08451892 0.059498243 -0.046549663 0.0724588 0.008380238
