checkpoint_critic_1 .pth (torch, 188663 bytes, 5 tensors)

fcs1.weight f4 [256, 52]
00000000: 211e d0bd 61cd a73e 93f4 833b d31c 243d
00000010: 2ac2 adbc 4dfd ed3c 4059 72bc e0d5 003e
00000020: e2d5 a8bd 7669 b33e bac5 15bd 08c7 a0bb
00000030: 6307 b13a 9c2b 2ebd d393 173d 24b5 e43c
00000040: 5944 fbbd 6914 913e 2a97 8bbc 4c43 0cbd
00000050: c5b1 2abe ec52 3bbe 3e06 45bd 1214 323d
00000060: d4dc 81bd d6e6 c3bd a1cf a73a 769f f4bd
00000070: 93a4 cf3d 8478 6f3d e7e9 debc 7728 3ebe
00000080: 946e 4b3c 3565 d3bd 0b2d 8d3c b565 56be
00000090: 7d10 f23d c79e 5fbd a25b 10bd b2a4 2ebe
000000a0: dd13 0dbd dd8b 5bbe 9d9d 87bc f7c8 b4bd
000000b0: b71f 2f3e c1b5 14be 6ae2 9dbb 9f7a 4fbe
000000c0: c2b1 32bf 503e 47be 646a 90be 7e19 193e
000000d0: 3ae4 16be 3ab6 143d 3fdd d83c 47fe 02bd
000000e0: 6a65 dd3c 987e 53be 5e85 70bc 0b7a 99bd
000000f0: a3f7 77bd 40e7 013e 1216 38bd 6c4e 74bc
00000100: 179a 1d3d 7c26 a8be 385e 4c3d ec6b 88bd
00000110: 89cb 9bbd b958 133e a9ab 09bd ffe1 edbd
00000120: 5449 3bbd 3710 513e 112b 5e3d 9f82 96bc
00000130: 487a 9dbc 169b e7be f632 6abd c718 e73a
00000140: ee18 843d ff32 18be a990 863d 8ada 2a3d
00000150: a0c9 a73d 9830 95be 26ec bf3c 238f cf3c
00000160: 95a1 c6bd fd43 bcbe 94fd 853c f9cf b93d
00000170: 3536 c93d 6fba 7cbe 2877 28bc a389 a0be
00000180: b34d 433d f31e c13d 726a f13c 279f 99be
00000190: dcff 6d3e ed60 aabe 79ae 0abf 094d 703d
000001a0: ecb8 a43b 17a8 383e 628c e73b 74be 00bb
000001b0: 63db 42bd ac08 f8bd cb4f 93bd ee0d c63b
000001c0: 8269 093e 930a 363e b707 23bd ab88 c4bd
000001d0: 4e8e 53bd 23c3 bebd f68c d1bc a442 94bd
000001e0: 4e7d 803d cc44 063e 1126 be3c 82df 00be
000001f0: 01eb 013e 43da 81be e7cc 9c3d a03f 6dbd
00000200: fe38 c0bd 551c 0ebe e3df 0bbd 8322 cd3d
00000210: 5cc4 e73d bbc6 9bbc 2cdc cdbc fd87 093e
00000220: 4556 04bd fe0e 21be 1f14 3fbd 1aa1 b5bd
00000230: 02a1 b23b 7988 a0bd 484e b83c f645 2cbe
00000240: 6156 5cbd bc8e 70be d4b4 f9bc c663 7c3d
00000250: 7688 0ebe bc82 78be 5102 cbbc 7dec e43c
00000260: e01f ce3e 9d03 693e 5fbd 4bbe 7a9c f43e
00000270: 2c42 9cbd ded7 d63b e1f7 b93c 099e b4bb
00000280: 58a2 11be 7c48 ad3e c32d 8dbc 5004 463d
00000290: 0bbc 953b 383e de3d e8ae 913b deb9 af3d
000002a0: 73fc ebbc 4303 333e f91c 5fbc 0a77 e73d
000002b0: c03f 653d 6582 9c3d f22b 12bd 5425 83bd
000002c0: 0659 573e 7326 0fbf d69f 823c 9b31 7cbc
000002d0: a01e 64bd 62ae f6bd 202d 283d 728f aebc
000002e0: 5823 133e 7a83 be3e 914f 21bd 6b9d c93c
000002f0: cd29 d03c 06e5 01bd 0f06 9e3a 26c9 abbd
00000300: 237a c63d b50e ee3d c114 df3b 85a5 1dbd
00000310: 2ec8 473e 5809 dbbc 7a69 25bc 8a1e 823d
00000320: dad5 3dbe 164b 04bf a2f7 053d 6c62 813c
00000330: 2bfe 84be 77aa 273d 849b a03f 8313 093e
00000340: 841e 9e3d befc 753c 5a6f c83c e99e 2fbd
00000350: 14ae 263e 4e94 f4bd 39e5 58bc 8407 b9bd
00000360: 9bd8 933d a930 e3bc b4f2 45bd 17c6 dcbc
00000370: 53ae af3d 78c3 e5bd 201b 273d 331f f4bd
00000380: ed63 203e 76b0 d43a 1898 733c 11f8 adbd
00000390: 12b1 67bc c13f 0c3e 03dd 82bd b3b8 bbbd
000003a0: 3ad6 533d 2418 9fbd e93c 85bc 81af f93d
000003b0: 85cd 98bd ae4a 2dbe 8b8b f1bc 89b8 f13d
000003c0: 856e 1bbd c53f c8bd 8f1d dd3b afbc 3d3e
000003d0: c929 13be 1416 e1bd a97a 49bd fc30 463e
000003e0: f1a3 db3d 3c37 dcbd eada aabd 1160 7ebe
000003f0: 00ab 40bc 53d5 5c3e ae42 0abc 4683 6bbe
-0.10161997 0.3277388 0.0040269583 0.04006655 -0.021210749 0.029051447 -0.014791787 0.12581587
-0.0824392 0.35041398 -0.03656552 -0.004906539 0.001350623 -0.042522058 0.03700621 0.027918406
-0.12268896 0.28335884 -0.017039854 -0.034243867 -0.16669376 -0.18293351 -0.048101656 0.04347617
-0.06340948 -0.09565513 0.0012802967 -0.11944477 0.10138812 0.058464542 -0.027211143 -0.18570124
0.012416501 -0.10322038 0.017233392 -0.20937236 0.11819551 -0.05459478 -0.035243638 -0.17055014
-0.03444277 -0.21440072 -0.016554648 -0.088273935 0.17101942 -0.14522459 -0.0048182504 -0.2026162
-0.69802487 -0.19457364 -0.2820617 0.14951131 -0.14735499 0.036306597 0.026472686 -0.03198078
0.027025897 -0.2065376 -0.014680235 -0.07493981 -0.0605389 0.12685871 -0.044942923 -0.014911275
0.03847703 -0.3284186 0.04989454 -0.066612095 -0.076071806 0.14389314 -0.033610974 -0.11615371
-0.045724228 0.20416342 0.05424029 -0.018372832 -0.019223347 -0.4523551 -0.057177506 0.0017631286
0.064500675 -0.14863203 0.065705605 0.04171232 0.08192754 -0.29138637 0.023428034 0.025336808
-0.09698788 -0.3677062 0.016356267 0.09072871 0.09824792 -0.24680494 -0.010282315 -0.31355008
0.04768152 0.09429731 0.029469702 -0.30004236 0.23242134 -0.33277074 -0.54172474 0.058667216
0.005026927 0.18032871 0.0070662955 -0.001964477 -0.047572505 -0.12111029 -0.07192954 0.006044141
0.13419154 0.17777471 -0.03980228 -0.0959638 -0.051649384 -0.09314563 -0.02557991 -0.07239273
0.062739 0.13112181 0.02321151 -0.12585261 0.12687303 -0.25361833 0.076562695 -0.057922006
-0.093858704 -0.13877995 -0.034149062 0.10016348 0.113167495 -0.01901566 -0.0251294 0.13430782
-0.032308836 -0.15728375 -0.04665005 -0.08868618 0.0054513225 -0.0783853 0.022498265 -0.16823563
-0.053793315 -0.23491949 -0.030481733 0.06161859 -0.13919243 -0.24268621 -0.024781378 0.027944798
0.40258694 0.22755285 -0.19896458 0.47775632 -0.07629809 0.006556495 0.022701206 -0.0055120033
-0.14222085 0.33844364 -0.017233735 0.048343956 0.0045695356 0.10851711 0.0044458993 0.08580373
-0.0288069 0.17481713 -0.013617747 0.11302002 0.055969 0.07642058 -0.03568644 -0.06403604
0.21030053 -0.55918044 0.015945356 -0.015392686 -0.05569327 -0.1204498 0.04105866 -0.021308634
0.14368951 0.37209684 -0.03938252 0.024611196 0.025410557 -0.031712554 0.0012056249 -0.083879754
0.096912645 0.11623899 0.006807894 -0.03848793 0.19509956 -0.026737854 -0.010095948 0.06353481
-0.18538609 -0.5167707 0.032706864 0.015794002 -0.25975165 0.040934052 1.254746 0.1338635
0.07720664 0.015013872 0.024467159 -0.042876158 0.16277343 -0.119423494 -0.013238245 -0.090346366
0.072190486 -0.027733164 -0.048327163 -0.026949925 0.085781716 -0.11218923 0.040797353 -0.11920013
0.15663119 0.0016226906 0.014867805 -0.084945805 -0.014141338 0.13696195 -0.06389811 -0.09166088
0.051717974 -0.07768276 -0.016264396 0.12191678 -0.07461075 -0.1692302 -0.029485485 0.118027754
-0.037947197 -0.09777788 0.0067479084 0.18529008 -0.14371409 -0.10990539 -0.049189243 0.19354624
0.10724629 -0.107527226 -0.08342536 -0.24841334 -0.01175952 0.21565752 -0.008438749 -0.22999296

fcs1.bias f4 [256]
00000000: a81a 7a3e a90b c8bd 0f63 e33c 0e42 963e
00000010: 8712 6dbd 00d5 303c a8cc 23be 2b6d 33be
00000020: d760 b3bc e9e4 85bd 6351 20be 3780 a23e
00000030: ee6f 99be 79ca ee3d 0b3c 6b3c 09ab 1cbe
00000040: 8860 5b3e a90e 323d a031 4abe 5c18 d1bb
00000050: ea71 57bc 4f63 4fbd e17e 78be 472a 153e
00000060: 380c c5bd 5f07 2b3c 617f d13d d303 26bd
00000070: ba74 cfbc 0345 2bbe 1da0 04be b44b ee3e
00000080: a702 27be d5ea 8c3e c5c5 48bd c5df c8bd
00000090: db34 5bbe c3ff 21be 9794 3ebd a2e3 1f3d
000000a0: c311 913d 02db 45be 4500 bebe 6246 28be
000000b0: 1fc5 6a3d 205a 54be b8fe a7bd a478 0abf
000000c0: 4709 dcbc 7963 d4bd 7f81 8dbe d22f d63d
000000d0: 2924 71bd 14f6 8ebe f22a f13d e737 a7bd
000000e0: f60a fcbc 9d09 6d3c fad5 42be 08fb 86be
000000f0: 127e ce3d 1c6f 493e ae34 93bd 2c90 9a3e
00000100: fe3f 413d 3c91 8ebb 567a 5dbe 042a 84be
00000110: d778 ce3d b128 bf3c 9369 2739 c957 f2bd
00000120: 06b6 6bbd 72f1 92be 975e a9be ff72 e5bd
00000130: f94d 073e 523b 833e 03a7 973d 09f1 eabd
00000140: 6b03 07be b541 903e 6a65 6dbe 25a2 c43d
00000150: 450d b6bd b228 39be 8fd3 47be dc9d 983e
00000160: 9e0b 2fbe ccf9 b2bd b7db 32be 597e 39be
00000170: dec4 54be 4bf5 6d3d ba29 5fbe b8f1 183c
00000180: 147e 5b3e 59f0 f53d 3370 ae3d bd92 abbd
00000190: ac3b 513d f544 3dbe 4ef1 be3e 3c08 653e
000001a0: 0ee4 75be 1ae1 24be 78a7 abbd 19dd 92bb
000001b0: 6afc 75be d193 76be bcde 02be bde0 24be
000001c0: e600 893e 900b b0bd 9263 313d f664 93be
000001d0: 75b8 04be 5612 513e 047c 7bbd e5a6 b03d
000001e0: 4ac5 c43c b668 4fbb 6cbb 93bd 0832 b3b7
000001f0: ce7f e6bd 7776 b5be 450e 1dbe 24e6 87be
00000200: 264d 52bd e5e6 a9be b205 923d 890c f5be
00000210: 8199 d73d 4666 eabd 35da 413e 01ad d6be
00000220: 2ea5 9cbd b9e2 3bbe 4f12 033e d5c5 dd3c
00000230: d368 9fbe 86b3 4bbe 62ba b93c 187b 52be
00000240: 8160 d2bd 6e18 763e 108c ae3c 5907 7a3e
00000250: 1cc1 ef3d 43f6 af3b 172b 60be 1907 263f
00000260: a917 e63d cbac cebd a082 083f e872 03bd
00000270: fc47 82bd 120c 61be 803d b03d db58 dabd
00000280: ef75 f7bd b168 a0bd 1028 0d3c bd2d 6b3d
00000290: c137 043e 0676 d63d fd79 ad3d 0fcf 4fbe
000002a0: ffed ad3d 00e0 273f dba6 15bd af94 0fbe
000002b0: b2da 61be bee6 ed3d 9cb6 8e3d a30b 3e3d
000002c0: eb16 9c3b 08b1 19be cfb6 293e 2cfa 9bbd
000002d0: 5a75 dd3d 1c76 08bf 728f c4bc e6f7 11bd
000002e0: 4f37 d8bd 9202 94be 4f29 23be e056 86bd
000002f0: 286a aabd d48c 2bbe 4f4e d73d d365 cdbd
00000300: 7f69 86bd ef0b 2bbc 828c 17bb 663c ff3d
00000310: 89ae b73d c93b 39be 5545 213e 8dfb 07be
00000320: 32cd a9be 6e29 95bd 14b0 96be 2d11 8dbe
00000330: e311 2fbd 74ee e33d 27a9 03be 92cc da3e
00000340: acfe 593d c86e 02be a778 2abd c21e f63d
00000350: f3ef b9bd e5b5 e8bd 884c 68be 6e4c 883e
00000360: fc36 e9bc 3945 b2bd a10e 10bd 8237 66bc
00000370: 5f18 7abe bf98 483c 829e 6abe c7cf 23be
00000380: 440a aebe 3ef1 2abd 1940 e93c 9cfa 61bb
00000390: 292d 9fbb 17da a03d ffc9 e13d 6b89 95bc
000003a0: 76b3 14be e4ce 19bd 43a0 143e 9f10 32be
000003b0: 7df6 373b 34bb 4cbd d98c 95bd 96f4 04bd
000003c0: 11e5 27bf fbc1 e6bd 3be1 78be 436f b5bd
000003d0: c0b1 c4be ae32 b0be f0e5 30be 844d 983d
000003e0: d051 a6bc 1c8d 8cbe 1e45 8abe ef6b f83d
000003f0: cdfb 48bd e6b8 c2bd d940 31be 3ff9 edbd
0.24424231 -0.09767849 0.027757196 0.2934727 -0.057878997 0.010792971 -0.15996039 -0.17522113
-0.021896763 -0.06537802 -0.15656047 0.31738445 -0.29968208 0.11659712 0.014357577 -0.1529962
0.21423542 0.043471012 -0.19745493 -0.0063810777 -0.013149718 -0.050631817 -0.2426715 0.14566909
-0.09621471 0.010438769 0.10229374 -0.04053099 -0.025324214 -0.16725545 -0.12951703 0.46542132
-0.16309606 0.27522913 -0.049016733 -0.09808306 -0.21406882 -0.15820222 -0.046528425 0.039035447
0.07083466 -0.19321826 -0.3710958 -0.16433099 0.057316896 -0.20737505 -0.082028806 -0.54090333
-0.026859893 -0.103705354 -0.2763786 0.1045834 -0.058872376 -0.27922118 0.11775769 -0.081649594
-0.030766945 0.014467624 -0.19026938 -0.26363397 0.1008264 0.19671291 -0.07187782 0.3018812
0.04718017 -0.0043508094 -0.21628699 -0.25813305 0.10081642 0.023334833 0.0001596569 -0.1183315
-0.057546638 -0.28699833 -0.3307998 -0.112035744 0.13213338 0.25631195 0.07404902 -0.11471755
-0.13184898 0.2817513 -0.23183218 0.09601239 -0.0888925 -0.1808193 -0.19514297 0.29807937
-0.17094275 -0.08739051 -0.17466627 -0.18114604 -0.20778224 0.058095258 -0.21793261 0.009334974
0.21434814 0.12008733 0.08517494 -0.083775975 0.0510823 -0.18483336 0.37293476 0.22366422
-0.24012777 -0.16101494 -0.083815515 -0.0044819233 -0.2402207 -0.24079825 -0.12780279 -0.16101356
0.26758498 -0.08595955 0.04330785 -0.28787965 -0.1296099 0.20417151 -0.061397567 0.086255826
0.024019856 -0.0031648106 -0.07213482 -2.136176e-05 -0.112548456 -0.35441944 -0.15337475 -0.2654277
-0.051343106 -0.3318397 0.071299925 -0.47861126 0.105273254 -0.11445288 0.18930896 -0.41928867
-0.07648693 -0.18348207 0.12799953 0.027071873 -0.31134662 -0.19892702 0.022671882 -0.20554769
-0.10272313 0.24032757 0.021307021 0.24416865 0.117067546 0.005369933 -0.21891437 0.6485458
0.112349816 -0.100915514 0.5332432 -0.032092005 -0.06361386 -0.2197726 0.0860548 -0.10661479
-0.12083041 -0.07832468 0.008615509 0.057416666 0.12911893 0.1047173 0.08470533 -0.2029383
0.0849266 0.6557617 -0.03653608 -0.14021562 -0.22056082 0.11616276 0.06968424 0.046397816
0.004763474 -0.15008938 0.16573642 -0.07616076 0.10813399 -0.5330522 -0.023994181 -0.035636805
-0.10557424 -0.2890821 -0.15933727 -0.06559539 -0.08321029 -0.1675294 0.10512983 -0.10029187
-0.065630905 -0.010439857 -0.002312452 0.12462692 0.08968837 -0.18089212 0.15749104 -0.13279553
-0.33164364 -0.07283293 -0.29431212 -0.27552167 -0.042741667 0.11129466 -0.12857495 0.427342
0.05322139 -0.12737572 -0.04161897 0.12017585 -0.0907897 -0.11362819 -0.22685444 0.2662081
-0.028468601 -0.087046094 -0.0351702 -0.01405132 -0.2442336 0.012243449 -0.22912028 -0.1599723
-0.33992207 -0.041733973 0.028472947 -0.003448165 -0.0048576784 0.07854097 0.11024856 -0.018254003
-0.14521584 -0.037550822 0.1451426 -0.17389153 0.0028070502 -0.04998322 -0.07302255 -0.032459818
-0.655839 -0.112674676 -0.24304669 -0.08859112 -0.38416862 -0.34413666 -0.17275214 0.0743666
-0.020302683 -0.27451408 -0.27005857 0.12129962 -0.04906826 -0.09507923 -0.17309894 -0.116198055

fc2.weight f4 [128, 256]
00000000: 7d57 913d fa8a 173c 89d8 a3be 9e6f 52be
00000010: e4e9 b3bd 02ed 56be 6938 fcbd dbfa 8abe
00000020: 2e04 c13d 71ab b3bd 2dae 68bc d583 ecbe
00000030: f2a0 8bbe 3082 413e e27b 8ebe 9585 98be
00000040: 9ed7 583d f652 333e a39d 6abc 7643 c3be
00000050: 613b 24be 61e5 913d 98d1 4e3c 973f 5cbe
00000060: 6664 8ebe 9388 1bbe 803c 233d d033 c1bd
00000070: 359c b4bd 9a77 89bd 8189 ffbd dde0 eb3d
00000080: 7766 663e fc1a 84be 0b12 353d 9a0c 4f3d
00000090: 1be0 fabd b391 313d 474e 05bd e843 ddbd
000000a0: 7878 debc d75e 2abe de12 11be 27e2 b43c
000000b0: 0edd 583d 6ce3 193e ee24 b6bd 1d82 efbc
000000c0: aa80 fe3d 02f2 2bbe e286 ab3e b954 4bbd
000000d0: b191 3cbd 7066 273d 4bc4 bebe 2a2f a03d
000000e0: 8bc4 e2bd 0309 81be d5be c53d 16af cf3d
000000f0: bb20 8bba 3cbe 6d3e 2665 2bbe 0032 213e
00000100: fd61 633d e84e bd3c 47c4 c0bd 3b65 35be
00000110: 9c14 b7bd 2788 2dbd 0bca 34bc 9989 5ebd
00000120: 7868 26be 9fa3 973d 7a1d 36be b3a5 59be
00000130: e0c4 823d b17c 0bbe 0860 0bbf f2df c53d
00000140: a439 15bc 288e 413c a462 10be d94e c7be
00000150: d69d 88bd b461 17be 1d85 eebd ea65 063e
00000160: f14f 963d d6c5 5ebd 8aff 87bc c2a4 573c
00000170: c269 a2bd 3441 c4bd 3c60 25be 79ab b7be
00000180: f908 dcbc d29d 5bbc 91f1 acbd 70d9 acbd
00000190: 14d7 3bbe bc6f e8bd b7b6 0c3e cf4d 95be
000001a0: 86f0 2d3e 0a54 a3bc 0eec 9e3d 8fed 8fbd
000001b0: 6ee4 a8bd 8c16 fc3c 5bfa 62bd 09c1 a8be
000001c0: 0ab5 143d 30ae 493d df9b d93d 8dae 27be
000001d0: 5fa1 a4bc 3d4f c1bd d9ab d03d 15e0 21be
000001e0: a739 71bd 9e2d 673e f7c9 21bc d7b6 1e3e
000001f0: 54a7 66bd 1813 a9bd bc81 91be 8de4 01be
00000200: f2e0 75bd 10aa 58bd 7272 a53d 54cc 953d
00000210: 8595 aabe 3eaf 503e ce2e 633d 8af0 dabe
00000220: f784 643d 499e bebd c8c5 163d adc8 683e
00000230: 57f7 b53d 2930 0b3e 246e 7fbe 4a73 aabd
00000240: 3985 cabd e825 853b 5d48 adbc 4b00 cabe
00000250: de17 3bbc c732 f63c 37ce f4bd 9ebb 0ebe
00000260: 3789 4fbe ed6f 54bd 5c5b 2abf 08fa a3bb
00000270: a718 04be 273e a0bb e3bb 3a3d 38db 943d
00000280: 3299 9b3d ea81 00be 30c5 0b3e e668 323d
00000290: 1ece 45bd f3f4 bfbd 64c0 8ebd 41ed 0e3c
000002a0: dd97 a7bd 9f39 9b3c d1fc 1abb 770e e63d
000002b0: 218d 97be a441 f2bd 8a94 c9ba dbba f73d
000002c0: 63c2 05be 5ab8 98be 39dc b7bc d038 ef3b
000002d0: 2d6f 0e3e 161b 10be 1ced 07bd 8b3c 66be
000002e0: f7c1 4e3b 00d0 96bd aaa9 57bc 1aa0 043d
000002f0: 5621 14be 56dd 893d 8e9b 523d 9e4d 63be
00000300: 675e 29bc 5977 1ebf c8bd 62bc f1f6 863d
00000310: 6d46 e2bd dcd7 003e 121e e93d b34c 02be
00000320: 21eb dfbd fc8b 223c d3d0 35be 14f5 24bb
00000330: 0eef 803c 7e47 e73d 4869 bbbd 61d6 c63d
00000340: 3794 20be b248 01bd 0e14 98bd 04e6 40be
00000350: 5da1 873d f07f cfbd 6ba3 f2bd 7bee f9bc
00000360: af1f 8abe 47d1 2bbc f20f 943e 5341 b3bd
00000370: 3ae3 513d 35c5 073d 9bf9 bc3d 992b af3d
00000380: 1b73 e43c 6382 c9bc c577 cdbd 6e97 283e
00000390: 438c 033d 4eab 103e 520c 1dbd 0072 7c3d
000003a0: 047a 3b3e dd9b 03bc ab8f 0ebf 0acb 04be
000003b0: d3be 013e 2bb7 08be eb8a 76bd a94d b63d
000003c0: 7f3d 853d 872d 29bd 88c6 8ebd aeb9 3cbe
000003d0: 29d5 ad3c f20f a13d 99e5 033d 0be9 d1bd
000003e0: 09ab 9fbd 5fd1 37bd 9fd4 5f3d c095 9a3d
000003f0: 430a de3c 3624 dfbb 2e45 503b 8b37 d13c
0.07096765 0.009249443 -0.3200114 -0.20550391 -0.087848455 -0.20988849 -0.12315447 -0.27144513
0.09424625 -0.08772934 -0.014201683 -0.4619433 -0.2727123 0.18897319 -0.2782889 -0.29789415
0.052940004 0.17512116 -0.01431981 -0.38137406 -0.16038276 0.07123829 0.012623213 -0.21508633
-0.27810973 -0.15188818 0.03985262 -0.094337106 -0.088188566 -0.06712265 -0.12477399 0.11517499
0.22500025 -0.25801837 0.04420666 0.050549127 -0.12249776 0.04335184 -0.032545354 -0.10803968
-0.027157053 -0.16637741 -0.14167354 0.022080494 0.05294519 0.15028161 -0.088937625 -0.029236848
0.124268845 -0.16791537 0.33501345 -0.049641345 -0.04603738 0.040869176 -0.37259135 0.07821496
-0.11072644 -0.25202188 0.09655539 0.10140817 -0.0010614613 0.232171 -0.16737804 0.1574173
0.05551337 0.023108914 -0.09412437 -0.17714398 -0.08939478 -0.042366173 -0.011034499 -0.054330442
-0.16250789 0.07404255 -0.17784682 -0.21254615 0.06385207 -0.13621785 -0.5444341 0.09661855
-0.009107981 0.011813678 -0.14100128 -0.38927343 -0.0667073 -0.14783365 -0.11646483 0.13124815
0.07339466 -0.05438789 -0.016601343 0.01316184 -0.07930328 -0.09582749 -0.16149992 -0.3587301
-0.026859747 -0.0134043265 -0.08444513 -0.084399104 -0.18343765 -0.11349437 0.13741575 -0.29160926
0.16986284 -0.019937534 0.077598676 -0.070277326 -0.082466945 0.03077247 -0.05541454 -0.32959774
0.036305465 0.049238384 0.10625433 -0.1637518 -0.020096479 -0.09438942 0.10189027 -0.15808137
-0.058892872 0.22575995 -0.009874812 0.15499435 -0.05631192 -0.08255595 -0.28419292 -0.12684841
-0.060028978 -0.05289656 0.08078469 0.07314363 -0.333172 0.2037935 0.05546456 -0.42761642
0.055790868 -0.09307534 0.036809713 0.22732802 0.08885067 0.1359259 -0.24944359 -0.08322771
-0.098886915 0.0040633567 -0.02115267 -0.3945335 -0.011419265 0.03005351 -0.11953395 -0.13938758
-0.20267187 -0.051864553 -0.66545653 -0.0050041713 -0.12900029 -0.0048902216 0.04558934 0.07268375
0.07597579 -0.12549558 0.1364944 0.04355707 -0.04829227 -0.09372892 -0.06970289 0.008723558
-0.081832625 0.018948374 -0.0023649225 0.11233228 -0.2959986 -0.11828926 -0.0015379351 0.12096187
-0.13062434 -0.2982815 -0.022443878 0.0073004737 0.13909598 -0.14072832 -0.03318511 -0.22484033
0.0031548718 -0.073638916 -0.01316301 0.032379247 -0.14465842 0.067316696 0.05141788 -0.22197577
-0.010337449 -0.6190086 -0.013839193 0.06590069 -0.11048589 0.12582344 0.113826886 -0.12724571
-0.10933519 0.00992107 -0.17755441 -0.0025170492 0.01573899 0.11292933 -0.0915094 0.09708858
-0.1568154 -0.03156347 -0.074257 -0.18837744 0.066225745 -0.10131824 -0.11847576 -0.030509224
-0.26977298 -0.010486907 0.28918415 -0.08752694 0.05124209 0.033147056 0.09227296 0.085532375
0.027886918 -0.024598306 -0.1003261 0.16464016 0.032116186 0.14127848 -0.038341828 0.061632156
0.18308264 -0.008032766 -0.5568797 -0.12968078 0.1267045 -0.13351123 -0.060191076 0.08901531
0.0650587 -0.041303184 -0.069714606 -0.18430206 0.021219807 0.078643695 0.032201383 -0.102495275
-0.07796294 -0.044877406 0.05464613 0.07548094 0.027104503 -0.0068097366 0.0031779516 0.02553918

fc2.bias f4 [128]
00000000: 1215 ee3d 0229 373d f290 8dbd 96d8 4cbd
00000010: 606b fd3c 6192 03bb 2c18 713e e0e8 cfbd
00000020: d877 213d 577d 99bd 0ff3 f6bd 5fe7 debd
00000030: 9d36 92bc a73a 233c 852e c13d 0986 25be
00000040: 7331 e9bc baf1 173b 7460 2ebe 5dee cebd
00000050: 6d7e 8c3e 322c 103e 6388 1c3c 8ccb 61bc
00000060: 144c 9bbd 3808 e63c bd9e 153e 1942 07be
00000070: d796 943d e489 bf3d 325f acbd 8c9d bebd
00000080: 76f7 b83b 6212 80bd bd03 24bc 6ca5 46bc
00000090: 5428 05be d72c bdbd 48bc 0bbe eb54 003d
000000a0: 7466 be3e f6c5 2e3d 26b3 09ba 7c04 8a3d
000000b0: 9f51 87bc e084 a43e 923c 71bb 325d 343d
000000c0: d79c d53c ae07 efbd 0422 e03c 51a0 0bbb
000000d0: 4cc7 6dbd 0e79 373c c7b0 75bd e0a4 d53b
000000e0: 565f a03c f7e6 14bc 9d67 86bd ee48 3c3c
000000f0: 4afa 9cba 9b0b 9b3d 72f9 8ebd ecba 02bd
00000100: eca6 cebd fcb3 c83d 5f6c 28bd f91b 8d3c
00000110: f3fd 233e 7cbb 3d3c af33 35be b729 183d
00000120: c551 10bd 18ab 343c 2792 0bbd 216e bebd
00000130: d539 713d d035 73bb 1fe0 9ebd 84e1 2b3e
00000140: ed35 f6bd fa94 a53e cc34 4dbc b790 18bd
00000150: 4939 a1bc b4eb a03b 193e 3a3e 4636 bbbd
00000160: 483b a5bd bf77 68bd 77d4 e83b b60d 49bd
00000170: e6d6 173d 2558 3ebd 354e 233d c585 f6bc
00000180: caf5 91bd 2e28 643d 1d5c c0bd d996 55bc
00000190: 99d7 6bbd 6990 a83d 73f4 7b3e 49b9 3c3a
000001a0: a378 f9bd 544b 563d f188 cbbc 11ac 763c
000001b0: 561f a33b d0c1 b4bd 288c 76bd ac08 273e
000001c0: 6294 413d 2a09 a3bd 2d82 c6bc 39f6 b9bc
000001d0: 4c39 bb3d d43d bbbd c7b0 41bc 64e7 1f3d
000001e0: b06f 973c b034 b7bc 6212 043e 6b42 01bc
000001f0: 0f9b 88bd 0f39 9dbc 0ee8 9b3c 930d 053e
0.116251126 0.044716842 -0.06912412 -0.05001124 0.03093499 -0.0020076262 0.23544377 -0.10151839
0.039420933 -0.0749461 -0.120580785 -0.10883974 -0.017848307 0.009962714 0.09432701 -0.16164412
-0.028465962 0.0023184852 -0.17028981 -0.10104058 0.27440205 0.14079359 0.0095540015 -0.0137814395
-0.0758287 0.02808009 0.14611335 -0.13208808 0.07255333 0.093524724 -0.084165946 -0.093073934
0.005644734 -0.06253506 -0.010010657 -0.012124401 -0.13003665 -0.09237068 -0.13646042 0.031330984
0.3718754 0.04266926 -0.00052528305 0.067391366 -0.016518412 0.32132626 -0.0036809784 0.04403419
0.026075764 -0.11671387 0.02735997 -0.0021305273 -0.058051392 0.011198295 -0.05998304 0.006519899
0.01957671 -0.009088269 -0.065627314 0.011491997 -0.0011976447 0.07570573 -0.06981172 -0.031916544
-0.100904316 0.09799954 -0.041118976 0.017225252 0.16014843 0.011580344 -0.17695497 0.037149157
-0.03523423 0.01102712 -0.03407493 -0.09298349 0.058893044 -0.0037110932 -0.077575915 0.16785246
-0.12022004 0.32340223 -0.012524795 -0.037247386 -0.019680636 0.0049109105 0.18187751 -0.09141211
-0.080679476 -0.056754824 0.007105406 -0.04908534 0.037070177 -0.04647078 0.039869506 -0.030093083
-0.07126959 0.05570238 -0.09392569 -0.013036453 -0.057578657 0.08230669 0.24604969 0.00071992405
-0.12181213 0.052317932 -0.024845572 0.015055672 0.004978101 -0.08826029 -0.060192257 0.16311902
0.04726065 -0.07960732 -0.024231995 -0.022700416 0.09141788 -0.09142652 -0.011821932 0.03903903
0.018485874 -0.02236399 0.12897637 -0.00788937 -0.066702 -0.019192247 0.01903155 0.1299346

fc3.weight f4 [1, 128]
00000000: 1767 db3c 3d30 3e3d 2fb4 043d 8481 e53c
00000010: ad5c 8ebd a104 72bc a3e0 8c3c 0a9a fabc
00000020: 7392 013d 6012 28bd 15c3 b23b 1569 d3bd
00000030: b53e fe3c b4e2 c13c 49a3 2fbd 5158 f0bc
00000040: 2db8 29bb c3c9 d8bd f983 7fbd fa27 0bbe
00000050: 9cdb f2bc 919c a13b ac9a 9ebc 7b0e 1a3d
00000060: f2ff e8bc 5f73 b53c c6a3 f73c caed 31bd
00000070: 8f4f 0cbd f9c8 383d b622 3fbd cc6e 9ebd
00000080: ecb8 1d3d a90d 143d 225a 0ebd 939b 96bc
00000090: a0ae 0f3d 4674 54bd fc59 54bd 3581 aebd
000000a0: 6aaf c43c eca8 5cbd 731e 7dbb ce0c a1bc
000000b0: b7fb 083c 0c4d 11bc 735b f0bc 3cee 223d
000000c0: 03d2 2e3d f389 6fbd f16b ebbc 5e2f f6bc
000000d0: e944 50bd fa3c 193d f576 4d3d f7b4 183d
000000e0: 8aa7 4d3d 58e1 81bd 93e7 343d 2887 0a3d
000000f0: 0a46 e33c ca04 0b3d 7dfc 6fbd 930e 433d
00000100: 2f5e 10bd e9a7 e5bc 57c8 8d3d 92b5 a1bd
00000110: a2ea 213d fdd5 d6bc b518 19bd 6b51 9e3d
00000120: 2c95 453c af3c 8ebd 6a9b 0abd 7595 16bd
00000130: a55d 77bc 42f9 eb3c 0056 a6bd 11b3 9a3c
00000140: a4f4 f03c 7dfc 093d ac56 353d f791 1d3d
00000150: 7e66 97bc 15d4 443d 4025 513c 1a70 31bd
00000160: b466 78bd 066b a2bd afbb 2ebd dc86 95bc
00000170: 67d0 fc3c 1b3d c83c 10b4 123d 3f91 09bd
00000180: ad2b d0bc 5ca2 633d 15fb dbbd 9c95 0f3d
00000190: 793d 153d 1ba8 0dbd 7bec 0e3d a34a fbbc
000001a0: af65 79bd b67d 5e3d 6746 b6bc 99de 2b3d
000001b0: 9360 0ebd 9547 493d 0009 c2bb cbb7 c73c
000001c0: 2bdb 603d cdc0 b6bc ace7 eebc 2620 353d
000001d0: 2d51 493d 7540 54bc 9a5f cf3c 04ac 233d
000001e0: 31d3 70bd 9042 f23c eb33 253c 4edd 003d
000001f0: 0c7c 32bd 68f0 8abd 5174 323d c97d 7fbc
0.026782556 0.046432722 0.0323984 0.02801586 -0.0695127 -0.014771611 0.017196959 -0.03059103
0.031633805 -0.04103315 0.0054553845 -0.10322777 0.03103576 0.02366767 -0.04288033 -0.029338988
-0.002589713 -0.10585358 -0.06238172 -0.13589469 -0.029645734 0.0049319942 -0.019360863 0.037611466
-0.028442357 0.02214974 0.03022946 -0.043439664 -0.03425556 0.045113537 -0.046663962 -0.077359766
0.038506433 0.03614584 -0.034753926 -0.01838473 0.035078645 -0.0518687 -0.05184363 -0.08520738
0.024009425 -0.053872034 -0.0038622885 -0.019659426 0.008360795 -0.008868467 -0.029340481 0.03977798
0.04268075 -0.058481168 -0.028737994 -0.030051883 -0.050846968 0.037411667 0.050162274 0.037281957
0.050208606 -0.06341809 0.04416616 0.0338203 0.027743358 0.033940114 -0.0585904 0.04762132
-0.03524607 -0.028034167 0.069229774 -0.0789596 0.039530404 -0.026225084 -0.037377078 0.07730373
0.012059491 -0.06945168 -0.03383962 -0.036763627 -0.01509801 0.028805379 -0.08121872 0.018884214
0.029413529 0.033688057 0.04427211 0.03846928 -0.01848149 0.04805382 0.012765229 -0.0433198
-0.06064482 -0.07930569 -0.042659458 -0.018252783 0.030861093 0.0244432 0.035816252 -0.033585783
-0.025411451 0.05557476 -0.107412495 0.035054788 0.036435578 -0.034584146 0.034893494 -0.030675238
-0.06088799 0.054319106 -0.022250367 0.041960333 -0.03476007 0.04914053 -0.005921483 0.024379632
0.054896515 -0.022308731 -0.029163204 0.044220112 0.04914968 -0.012954821 0.025314141 0.03995897
-0.058795158 0.029572755 0.010083179 0.031461053 -0.04357533 -0.06784135 0.04356796 -0.015593954
