checkpoint_actor_0.pth (torch, 160495 bytes, 6 tensors)

fc1.weight f4 [256, 24]
0.0728908 0.09950809 0.026343135 -0.1522284 -0.098278925 -0.07132488 0.030887455 -0.07521914
0.0048127584 0.01267931 -0.046247233 -0.31876448 0.03944198 -0.07524464 0.015808616 -0.2655651
-0.018834738 -0.13316986 -0.051744252 -0.13519701 0.10883544 -0.06364533 0.013659854 -0.18036675
-0.056720234 0.13982134 -0.045174535 -0.10183174 -0.009160451 -0.056467872 -0.036657345 -0.19458668
-0.120593384 -0.016286466 0.070782654 -0.13539143 -0.045019206 -0.0462259 0.02336199 -0.12533125
-0.058731843 -0.025888687 -0.023217713 -0.08281473 0.0029245366 -0.12881494 0.021995999 -0.12113071
-0.091264315 0.123301715 0.0358724 0.0030246745 -0.19339204 0.04815121 -0.04689197 -0.05093354
-0.016370937 0.1018492 -0.026213536 -0.13856243 -0.10842349 -0.021969661 -0.0070298733 -0.118728
-0.023438826 0.06356951 -0.017536025 -0.07995218 -0.06487095 -0.07892497 0.028843554 -0.0048288614
-0.017577048 -0.15517113 0.0031497309 -0.035648525 -0.06672544 0.028165672 0.026969422 -0.042609524
-0.044157762 -0.12590784 0.019950595 0.04178036 -0.014512955 -0.1500041 0.058399122 0.113627054
0.0055878256 -0.07667382 0.011673854 0.02382497 -0.10846618 -0.28614423 0.108154826 0.053382397
-0.06922012 -0.11100702 0.08845192 0.2767615 0.13581657 0.0017876095 -0.017291715 0.20452891
-0.02986955 0.040096518 -0.015414115 -0.033757053 0.14907359 0.055021178 0.0065689767 0.03355424
0.003425959 0.028673429 -0.028912138 -0.021529354 -0.0046872874 0.19169101 0.0097312955 0.04672557
-0.008798204 -0.06423997 -0.028763983 -0.0002987249 0.037637725 -0.07762175 0.04944917 0.017929586
-0.014439906 -0.015641836 -0.009410525 0.0083765015 -0.06499428 0.006494171 0.058183517 0.034350913
0.04869151 -0.16106893 0.08100759 0.04723869 -0.028024616 0.21010369 0.08924927 0.021043446
-0.11972853 -0.15643254 -0.020578634 -0.027789364 0.121592194 -0.18290874 0.0068678767 0.061748482
-0.023266979 -0.2507764 0.00036700806 -0.077689104 -0.08061688 -0.037651885 -0.020877162 -0.06945305
-0.06535373 -0.25104877 -9.343732e-05 -0.013918448 -0.0897475 -0.06255657 -0.0021467905 0.016847286
-0.049191497 -0.06944466 -0.068780184 0.0024035112 -0.035019204 -0.07138754 -0.040868636 -0.04340931
-0.061925407 -0.05877537 -0.07757997 -0.0701492 -0.10912569 -0.15088542 -0.06416641 -0.0626421
-0.051574312 -0.023923893 -0.043270092 0.010931624 -0.12327633 -0.38029858 0.033276558 -0.008556639
-0.009571823 0.15438683 0.08320208 0.05379742 -0.11170808 -0.07003994 0.08565595 0.028432172
0.040115174 0.13148876 0.0143037 -0.046318837 -0.05626478 -0.09923499 0.034517627 -0.02157666
0.069958135 0.12733808 0.017701128 0.0026233047 -0.065556735 -0.22474855 -0.05998027 -0.06364891
0.04747009 0.063760184 -0.054782487 0.007292723 -0.023747703 0.08695361 -0.06295696 0.024882384
0.035483867 0.07666422 0.07287061 0.019997213 -0.08255771 0.062621534 0.027600529 -0.050301332
0.12043918 0.018498315 -0.06512737 -0.019689001 -0.13934053 -0.036125608 0.031826228 -0.045811087
-0.05891194 0.11863913 -0.016814355 0.046848275 -0.017033286 -0.0054999148 -0.059193492 0.102618605
-0.0045115077 0.1257424 -0.009924357 0.0371603 0.046404414 -0.054637644 -0.05128825 0.05864331
00000000: c647 953d e6ca cb3d 8fcd d73c c3e1 1bbe
00000010: 7646 c9bd c712 92bd b007 fd3c 7e0c 9abd
00000020: 58b4 9d3b e1bc 4f3c bd6d 3dbd 1935 a3be
00000030: ea8d 213d dd19 9abd 1281 813c 26f8 87be
00000040: 4f4b 9abc ae5d 08be c8f1 53bd 1671 0abe
00000050: 1de5 de3d 7c58 82bd 95cd 5f3c 10b2 38be
00000060: 7a53 68bd 532d 0f3e ef08 39bd 298d d0bd
00000070: b715 16bc db4a 67bd 0326 16bd bb41 47be
00000080: aaf9 f6bd 326b 85bc 7ff6 903d 0da4 0abe
00000090: 0f66 38bd 5f57 3dbd a561 bf3c d656 00be
000000a0: cd90 70bd 8314 d4bc 1333 bebc c59a a9bd
000000b0: 95a9 3f3b 10e8 03be f430 b43c 6113 f8bd
000000c0: c9e8 babd 9c85 fc3d f0ee 123d 9e39 463b
000000d0: 9008 46be 343a 453d cb11 40bd b09f 50bd
000000e0: 581c 86bc 5096 d03d c5bd d6bc 4fe3 0dbe
000000f0: 220d debd b8f9 b3bc da5a e6bb aa27 f3bd
00000100: c802 c0bc bb30 823d b6a7 8fbc f8bd a3bd
00000110: 10db 84bd 6aa3 a1bd 5149 ec3c 6d3b 9ebb
00000120: befd 8fbc 2ee5 1ebe b76b 4e3b 3004 12bd
00000130: 59a7 88bd b2bb e63c faee dc3c 5387 2ebd
00000140: c5de 34bd fced 00be 6e6f a33c e221 2b3d
00000150: bfc7 6dbc ad9a 19be eb33 6f3d 4db5 e83d
00000160: 141a b73b 2a07 9dbd b143 3f3c 952c c33c
00000170: 8423 debd 7f81 92be 4780 dd3d 80a7 5a3d
00000180: 47c3 8dbd a657 e3bd 4826 b53d afb3 8d3e
00000190: 8013 0b3e 394e ea3a 5ba7 8dbc 0770 513e
000001a0: fdb0 f4bc 3f3c 243d 7c8b 7cbc d644 0abd
000001b0: bfa6 183e e35d 613d 9240 d73b 2c70 093d
000001c0: 0e86 603b 8ae4 ea3c 26d9 ecbc 545e b0bc
000001d0: d197 99bb a64a 443e 0370 1f3c 5063 3f3d
000001e0: 5826 10bc 3f90 83bd 72a2 ebbc 2d9e 9cb9
000001f0: 042a 1a3d 27f8 9ebd 368b 4a3d 11e1 923c
00000200: 5b95 6cbc 4f23 80bc 9a2e 1abc 983d 093c
00000210: b91b 85bd 0ecd d43b d751 6e3d 8bb3 0c3d
00000220: c070 473d 41ef 24be 4fe7 a53d 5b7d 413d
00000230: e193 e5bc 6c25 573e 52c8 b63d 4e63 ac3c
00000240: 3b34 f5bd da2f 20be 8694 a8bc 85a6 e3bc
00000250: 5405 f93d 6e4c 3bbe ed0b e13b faeb 7c3d
00000260: 649a bebc c465 80be fd6a c039 771b 9fbd
00000270: 761a a5bd dd38 1abd 9506 abbc 673d 8ebd
00000280: 2dd8 85bd 7789 80be c7f3 c3b8 340a 64bc
00000290: 8acd b7bd a91d 80bd 2bb1 0cbb 5203 8a3c
000002a0: 067d 49bd 0039 8ebd a0dc 8cbd 3a84 1d3b
000002b0: 4c70 0fbd a133 92bd df65 27bd f6cd 31bd
000002c0: 7fa5 7dbd 71be 70bd 3fe2 9ebd 62aa 8fbd
000002d0: 4a7d dfbd b581 1abe ae69 83bd 804a 80bd
000002e0: 963f 53bd 0afc c3bc fb3b 31bd 8e1a 333c
000002f0: 4d78 fcbd 7fb6 c2be 004d 083d 2531 0cbc
00000300: 23d3 1cbc 9517 1e3e da65 aa3d af5a 5c3d
00000310: 35c7 e4bd 1a71 8fbd 636c af3d 96ea e83c
00000320: cf4f 243d fda4 063e 115a 6a3c d2b8 3dbd
00000330: e675 66bd b73b cbbd 5b62 0d3d 89c1 b0bc
00000340: 3646 8f3d ea64 023e f501 913c c0eb 2b3b
00000350: 9c42 86bd 7c24 66be dfad 75bd 5c5a 82bd
00000360: ff6f 423d b394 823d 9a63 60bd cbf7 ee3b
00000370: 8b8a c2bc bc14 b23d 94ef 80bd 24d6 cb3c
00000380: 8857 113d 2102 9d3d 303d 953d 32d1 a33c
00000390: 0414 a9bd b83f 803d 811a e23c c508 4ebd
000003a0: d1a8 f63d c789 973c 8061 85bd d44a a1bc
000003b0: 49af 0ebe 72f8 13bd 385c 023d 68a4 3bbd
000003c0: a54d 71bd 12f9 f23d 42be 89bc fae3 3f3d
000003d0: 6489 8bbc a138 b4bb e074 72bd b429 d23d
000003e0: 45d5 93bb 9ec2 003e c599 22bc 6635 183d
000003f0: 8e12 3e3d b9cb 5fbd a113 52bd f833 703d

fc1.bias f4 [256]
-0.06001652 0.17118277 0.116099216 0.16344388 0.022592716 -0.2159102 -0.24394213 -0.026420482
-0.20846963 -0.18604995 0.1718236 0.059234064 0.07497228 -0.17987761 0.046733815 0.17850144
0.01424929 0.10265727 -0.1502303 -0.14277345 0.12578276 -0.1332977 -0.046454854 -0.10515286
0.07943582 -0.095459744 0.08185212 0.046807483 -0.2082423 -0.014275852 -0.009981907 -0.14122461
-0.06520394 0.003452954 -0.118613206 0.083621256 -0.18752758 0.2627131 -0.08198446 0.10957516
-0.07731248 -0.16516766 0.023390174 -0.12617154 0.018297542 -0.005314598 0.035713844 -0.27687266
0.20544636 0.119030185 -0.07446328 0.18704656 -0.12343528 -0.13823208 -0.0032676575 -0.0909859
0.13975793 -0.022267014 -0.17716609 0.24884865 0.12378065 0.10696528 -0.029685464 -0.18360128
0.052457742 0.0340912 -0.13713925 0.24467605 -0.20839684 -0.0071789837 -0.15646733 -0.15577313
-0.20400345 -0.08760117 -0.047943242 0.24923202 0.030464575 0.25241533 0.12881762 0.020432442
-0.034092363 -0.17623882 -0.1382796 -0.23480278 0.14028066 -0.1373027 -0.11442038 0.031403948
-0.14978725 0.07369114 -0.033553265 -0.008124835 -0.10621333 0.1135711 -0.15318274 -0.17610262
0.17787215 -0.08462166 0.19428597 0.13056166 0.095283486 -0.07480361 0.034859043 0.09155554
-0.08947462 0.1130007 0.13633889 0.026272232 0.13402353 -0.00897431 -0.030856518 -0.15767287
-0.12029562 -0.23442866 -0.117090985 0.12631229 0.21236348 -0.15825625 -0.11793446 0.1429877
-0.15828948 0.04280807 0.19040293 0.25708184 0.08299409 0.17609264 0.070045546 0.082329765
0.028127933 -0.13522395 -0.1986662 0.20160949 -0.2501912 0.10357122 0.17722097 0.17469959
0.0903519 0.037569422 0.17864758 0.1202116 0.0069717225 -0.14059263 0.14154068 -0.019210529
0.14648451 -0.14912577 -0.06371349 -0.12007644 0.024968646 0.12701115 0.024532272 0.1812849
0.17316335 -0.024617843 0.11011878 0.1205584 0.1960902 0.01732116 -0.044472385 0.104027666
-0.07357444 -0.09873355 0.02467475 -0.010711667 -0.046579923 0.1531078 -0.07130772 0.16707268
-0.0549222 0.23160902 0.18319833 -0.15629087 -0.19584322 -0.2674584 -0.08391927 -0.16595298
-0.011036525 0.2019252 -0.13974538 0.044486154 -0.1271235 0.13103966 0.15259162 0.15295027
0.19878183 -0.111443974 -0.101634376 -0.1463833 0.068574436 0.13189319 0.09713164 0.045576926
0.01102135 -0.11007578 0.20762351 -0.12131738 -0.12504241 0.088622324 0.14231427 0.026654892
-0.027278138 -0.050567213 0.032504715 -0.053163595 0.15456328 0.24632287 -0.07578929 0.14774695
-0.07061064 -0.17025013 0.021215366 -0.05462276 0.12809134 -0.009019955 -0.06634894 -0.19310965
0.15271905 0.15123773 0.05534857 0.01577606 0.0063961665 0.11096632 0.23608653 -0.060882352
-0.04902064 -0.19311431 0.1002625 -0.062965006 -0.052404337 -0.07907804 0.22025529 0.13567717
-0.054712843 -0.013706774 0.02883488 0.0906022 -0.12717414 0.09787555 0.024714144 0.15327464
-0.15598316 -0.08738286 0.16434774 -0.055522166 -0.016992535 0.27922428 -0.04226433 -0.22578476
-0.08288594 -0.050549783 -0.09320588 -0.060386613 0.19238345 0.2095194 -0.15263665 0.16413295
00000000: e2d3 75bd 894a 2f3e 6dc5 ed3d d55d 273e
00000010: 5c14 b93c 9017 5dbe f7cb 79be c46f d8bc
00000020: 1079 55be e183 3ebe 87f2 2f3e 6b9f 723d
00000030: 118b 993d d631 38be f56b 3f3d 15c9 363e
00000040: db75 693c fa3d d23d f9d5 19be 3433 12be
00000050: 32cd 003e 317f 08be 7247 3ebd 625a d7bd
00000060: 3faf a23d 6680 c3bd 16a2 a73d 34b9 3f3d
00000070: 783d 55be 43e5 69bc 278b 23bc 2f9d 10be
00000080: a589 85bd f54a 623b 7beb f2bd 9f41 ab3d
00000090: 3b07 40be 5582 863e 78e7 a7bd f168 e03d
000000a0: 0156 9ebd b621 29be c09c bf3c 1d33 01be
000000b0: bae4 953c 1426 aebb ae48 123d 41c2 8dbe
000000c0: 8860 523e 19c6 f33d 3480 98bd 2289 3f3e
000000d0: a3cb fcbd b68c 0dbe 3226 56bb d156 babd
000000e0: b41c 0f3e 5069 b6bc 076b 35be 2ed2 7e3e
000000f0: b680 fd3d 9d10 db3d ee2e f3bc f901 3cbe
00000100: eedd 563d 37a3 0b3d 3b6e 0cbe 5c8c 7a3e
00000110: fb65 55be ae3d ebbb f938 20be fe82 1fbe
00000120: 48e6 50be 3e68 b3bd 2260 44bd ae36 7f3e
00000130: d890 f93c 953c 813e c4e8 033e f061 a73c
00000140: 6fa4 0bbd f377 34be 2b99 0dbe 2470 70be
00000150: bca5 0f3e 1499 0cbe 3b55 eabd 6da1 003d
00000160: d461 19be 61eb 963d 266f 09bd 071e 05bc
00000170: 6086 d9bd f797 e83d f0db 1cbe 3f54 34be
00000180: 1e24 363e 1f4e adbd e7f2 463e f5b1 053e
00000190: fd23 c33d a332 99bd 5bc8 0e3d 7981 bb3d
000001a0: 783e b7bd e96c e73d 6c9c 0b3e dd38 d73c
000001b0: 773d 093e fc08 13bc cfc6 fcbc ff74 21be
000001c0: 8d5d f6bd 110e 70be 66cd efbd 0258 013e
000001d0: d075 593e ed0d 22be 9f87 f1bd 5e6b 123e
000001e0: a316 22be 8457 2f3d fcf8 423e 3ba0 833e
000001f0: cef8 a93d a151 343e 0a74 8f3d 829c a83d
00000200: 8d6c e63c 2678 0abe 276f 4bbe b872 4e3e
00000210: 1019 80be 261d d43d 6a79 353e 73e4 323e
00000220: 6b0a b93d 65e2 193d 64ef 363e 8031 f63d
00000230: 0c73 e43b 84f7 0fbe 0af0 103e 665f 9dbc
00000240: 0900 163e 6db4 18be 387c 82bd a3ea f5bd
00000250: 0c8b cc3c 360f 023e e7f7 c83c c0a2 393e
00000260: bc51 313e 5cab c9bc f485 e13d 53e7 f63d
00000270: dfcb 483e 1be5 8d3c ad28 36bd 750c d53d
00000280: 32ae 96bd d134 cabd b422 ca3c fd7f 2fbc
00000290: 97ca 3ebd 4bc8 1c3e c809 92bd 1a15 2b3e
000002a0: 1af6 60bd ea2a 6d3e 5898 3b3e b70a 20be
000002b0: 208b 48be 4ff0 88be dedd abbd 94ef 29be
000002c0: 8ad2 34bc 7bc5 4e3e 6a19 0fbe 1d37 363d
000002d0: aa2c 02be 432f 063e fa40 1c3e ff9e 1c3e
000002e0: 778d 4b3e bd3c e4bd af25 d0bd 81e5 15be
000002f0: c170 8c3d 020f 073e f4ec c63d dfae 3a3d
00000300: e492 343c 696f e1bd 429b 543e 3f75 f8bd
00000310: 1e0b 00be 9f7f b53d d5ba 113e 5c5b da3c
00000320: 6776 dfbc 911f 4fbd aa23 053d 12c2 59bd
00000330: d645 1e3e 103c 7c3e 6a37 9bbd fa4a 173e
00000340: 509c 90bd 0d56 2ebe d9cb ad3c 1dbc 5fbd
00000350: 602a 033e 6fc8 13bc f4e1 87bd 89be 45be
00000360: 6262 1c3e 10de 1a3e 2fb5 623d cc3c 813c
00000370: ef96 d13b 4f42 e33d abc0 713e c65f 79bd
00000380: dec9 48bd c2bf 45be 6d56 cd3d ccf3 80bd
00000390: eea5 56bd abf3 a1bd 9a8a 613e f5ee 0a3e
000003a0: 931a 60bd 6192 60bc 2037 ec3c a58d b93d
000003b0: f039 02be fa72 c83d 5175 ca3c 07f4 1c3e
000003c0: 0dba 1fbe c9f5 b2bd c64a 283e 366b 63bd
000003d0: ee33 8bbc 7cf6 8e3e 5d1d 2dbd 1f34 67be
000003e0: 1bc0 a9bd 4a0d 4fbd b9e2 bebd f457 77bd
000003f0: 2b00 453e 418c 563e c84c 1cbe 7812 283e

fc2.weight f4 [128, 256]
0.0264512 -0.0026696266 0.083909765 0.009947886 0.018141296 -0.0063547906 0.029017948 0.093137816
-0.0133311935 0.06363873 -0.0654683 -0.06239912 -0.13505301 -0.015464153 0.06692688 0.08524496
0.07047137 -0.11722457 0.034028616 -0.08033369 -0.06308243 0.14491984 -0.01709794 -0.13528988
-0.12015489 -0.0054530604 0.018682333 -0.04563331 -0.0032798997 -0.107898995 0.13267481 0.022626132
-0.008188357 0.0019693095 0.15799557 -0.010725581 0.012723707 -0.023681594 -0.002511932 0.073244296
0.01746621 0.051996954 -0.030763574 -0.05799273 0.029128412 0.055908732 -0.06307928 -0.31170473
0.059800554 0.019986913 -0.03825434 -0.09051848 -0.013432561 -0.010223562 0.024471037 -0.016568707
0.05176773 -0.054338753 -0.123067215 -0.029963182 -0.038183536 0.019294916 0.004339226 0.05570335
-0.037577465 0.06935044 -0.0062399395 -0.083776325 -0.13969226 -0.012316241 0.22332248 -0.09147085
-0.0856941 0.025721762 -0.051283825 -0.029394917 0.017228734 -0.14447716 0.034892976 -0.06022337
0.019470619 -0.05196926 -0.05479185 0.33110365 0.13125187 -0.058857482 -0.07207953 0.03490263
-0.015199439 -0.00804389 0.08870726 -0.007636344 -0.15665619 0.051692083 -0.059583317 0.03323169
0.07628797 -0.032658592 0.058310393 -0.09529085 0.052150663 0.09152437 0.06590503 0.04582348
0.11692562 -0.038252912 -0.05700181 0.13469785 -0.10774738 0.087281205 -0.15729888 0.0059483447
-0.030492198 0.028538456 -0.004454341 0.048999444 -0.0076655583 0.069773674 -0.055949327 0.057536144
0.05304629 -0.11544476 -0.10451386 0.03158109 0.043662515 0.016472254 0.012534437 -0.06036048
0.011666952 0.05102085 0.06986379 0.082065016 -0.007733481 0.13447906 0.1103406 -0.102752015
-0.06127539 0.07357097 -0.017686795 0.016165603 0.009042003 0.01015498 0.08433151 -0.08890669
0.029973298 0.06146684 -0.04359138 0.051346436 -0.007998536 -0.05112749 0.11061236 -0.07774495
-0.08723382 -0.12457217 0.087999135 0.012020574 0.0019571176 0.03144206 0.056657262 0.10610215
0.04856308 0.0076996954 0.05582779 -0.08377592 0.08067121 0.004724108 -0.15660106 0.17442466
0.0969658 -0.09917826 -0.041091792 -0.06580651 -0.11409918 -0.007401931 0.01456317 -0.042790025
0.031348713 0.06142709 -0.031110432 0.13470696 0.010164916 -0.0028141798 0.028316712 -0.011164464
0.04875647 -0.0016248388 0.03996559 0.01928594 0.054543875 0.10088249 -0.10627285 -0.04256192
-0.087426424 -0.10097706 -0.04555755 0.033560112 -0.0424005 -0.045414608 0.04469501 0.067699514
0.04299633 -0.059693273 -0.04757345 0.07429624 0.024766974 0.09097622 -0.099736504 0.04366282
0.008855248 0.16937305 0.030762412 -0.020903451 0.06994687 0.12604639 0.13039449 -0.1259857
0.03925815 0.06854676 -0.017940076 -0.100471884 0.031647805 0.17416789 0.03658945 0.14436197
0.04420151 -0.05371476 -0.11581521 0.06939502 -0.09270228 -0.046766575 0.0037940065 0.08073728
-0.020328999 0.013186559 -0.0010818122 0.007792926 0.16708958 0.2188327 0.05273514 -0.05615096
0.0582813 -0.017115837 0.07444022 -0.045218494 0.06314913 0.041348945 0.0786805 -0.072403066
0.07385409 0.020039212 -0.0042586233 -0.032918755 0.008628372 -0.01643383 0.06775281 -0.06457226
00000000: 30b0 d83c e7f4 2ebb e2d8 ab3d 75fc 223c
00000010: 0e9d 943c d93b d0bb 0cb7 ed3c 0abf be3d
00000020: 146b 5abc 0655 823d 3e14 86bd 3896 7fbd
00000030: 564b 0abe 5c5d 7dbc f610 893d e994 ae3d
00000040: 4b53 903d 6f13 f0bd 9761 0b3d fd85 a4bd
00000050: 5c31 81bd de65 143e fb10 8cbc 6e89 0abe
00000060: c413 f6bd 96af b2bb b10b 993c fee9 3abd
00000070: 96f3 56bb 26fa dcbd e8db 073e 705a b93c
00000080: 7528 06bc 880f 013b 97c9 213e 59ba 2fbc
00000090: 1877 503c e7ff c1bc 3a9f 24bb 1b01 963d
000000a0: 4c15 8f3c c2fa 543d e403 fcbc c989 6dbd
000000b0: b59e ee3c 8e00 653d b62f 81bd c397 9fbe
000000c0: 6df1 743d 98bb a33c 95b0 1cbd c161 b9bd
000000d0: 3f14 5cbc ba80 27bc 7c77 c83c 19bb 87bc
000000e0: 660a 543d 5092 5ebd aa0a fcbd 5975 f5bc
000000f0: 5766 1cbd 5f10 9e3c 1130 8e3b 3229 643d
00000100: d4ea 19bd 9a07 8e3d 6878 ccbb ec92 abbd
00000110: 7d0b 0fbe 0fca 49bc a6ae 643e 1255 bbbd
00000120: 6380 afbd 72b6 d23c fd0e 52bd 9ccd f0bc
00000130: 4623 8d3c d2f1 13be f0eb 0e3d c8ac 76bd
00000140: d980 9f3c b8dd 54bd 6b6d 60bd 6b86 a93e
00000150: e466 063e 8b14 71bd 6f9e 93bd 0ff6 0e3d
00000160: 1107 79bc 85ca 03bc 27ac b53d 4c3a fabb
00000170: 7b6a 20be 14bb 533d a30d 74bd f41d 083d
00000180: de3c 9c3d 04c5 05bd e1d6 6e3d d927 c3bd
00000190: ef9b 553d 2171 bb3d 37f9 863d 67b1 3b3d
000001a0: b376 ef3d 16af 1cbd bb7a 69bd 3cee 093e
000001b0: a9aa dcbd 7dc0 b23d f512 21be 55ea c23b
000001c0: c6ca f9bc 7bc9 e93c b8f5 91bb a4b3 483d
000001d0: 5d2f fbbb 80e5 8e3d 1f2b 65bd 05ab 6b3d
000001e0: 1147 593d 4d6e ecbd 5d0b d6bd 2c5b 013d
000001f0: 77d7 323d d2f0 863c 3d5d 4d3c 8d3c 77bd
00000200: be26 3f3c 3dfb 503d bf14 8f3d b411 a83d
00000210: 2469 fdbb e1b4 093e 41fa e13d a66f d2bd
00000220: e7fb 7abd 60ac 963d e6e3 90bc ba6d 843c
00000230: e924 143c 1361 263c 00b6 ac3d b614 b6bd
00000240: 908a f53c a7c4 7b3d e08c 32bd a450 523d
00000250: 4b0c 03bc 0f6b 51bd bc88 e23d bf38 9fbd
00000260: a5a7 b2bd b21f ffbd e438 b43d f1f1 443c
00000270: fc42 003b 64c9 003d 7211 683d 164c d93d
00000280: 15ea 463d ba4d fc3b aeab 643d b692 abbd
00000290: f336 a53d b1cc 9a3b 075c 20be 619c 323e
000002a0: 0196 c63d f91d cbbd de4f 28bd 90c5 86bd
000002b0: d5ac e9bd e68b f2bb 5d9a 6e3c 9844 2fbd
000002c0: 8267 003d f99a 7b3d 4edb febc 9ff0 093e
000002d0: bf8a 263c 1a6e 38bb 73f8 e73c 28eb 36bc
000002e0: ddb4 473d 8bf8 d4ba f5b2 233d 8cfd 9d3c
000002f0: 6669 5f3d 7b9b ce3d 94a5 d9bd 6855 2ebd
00000300: a00c b3bd 10cd cebd 8e9a 3abd 5476 093d
00000310: 26ac 2dbd ab04 3abd 1d12 373d 0ba6 8a3d
00000320: eb1c 303d ef80 74bd 61dc 42bd a128 983d
00000330: 1ce4 ca3c be51 ba3d a742 ccbd c9d7 323d
00000340: 9a15 113c 2170 2d3e 7401 fc3c b73d abbc
00000350: 4e40 8f3d 4e12 013e 2286 053e 6502 01be
00000360: 27cd 203d 3e62 8c3d 11f7 92bc 34c4 cdbd
00000370: 21a1 013d 1159 323e d2de 153d a0d3 133e
00000380: a40c 353d 0204 5cbd 8630 edbd fa1e 8e3d
00000390: b1da bdbd 4f8e 3fbd dea4 783b 9659 a53d
000003a0: 0089 a6bc 700c 583c 98cb 8dba cd5b ff3b
000003b0: 8819 2b3e ae15 603e cd00 583d 8dfe 65bd
000003c0: 5fb8 6e3d 8336 8cbc 1d74 983d 0737 39bd
000003d0: 5554 813d 835d 293d 3e23 a13d 0f48 94bd
000003e0: d040 973d 4629 a43c ec8b 8bbb d1d5 06bd
000003f0: 045e 0d3c 3da0 86bc fcc1 8a3d 763e 84bd

fc2.bias f4 [128]
0.0797542 0.018238144 -0.07139159 0.016612427 0.06494294 -0.08609665 0.03452492 -0.051405348
0.048384633 0.03212459 0.053245563 0.040922217 -0.037347972 0.014177071 -0.014476421 -0.0022249718
-0.0471178 -0.009551672 -0.025078133 -0.012237393 -0.010779448 0.014326111 0.086621456 0.09645948
0.05319127 0.0028772308 -0.070308186 0.026761191 0.025083352 -0.037866525 0.011611365 0.020059396
-0.06246615 -0.011167742 -0.061494075 0.02804741 0.03594424 0.06147842 -0.0058869137 -0.036502305
0.026301919 0.032369137 0.041020285 0.07824833 0.047950752 0.006337664 -0.03336503 0.07728884
-0.023188164 -0.04239652 0.033325728 -0.006124793 -0.03280579 0.006554528 -0.0024596117 0.08656014
-0.0023092143 0.117148034 -0.016546745 0.060151726 -0.00516849 -0.034599304 -0.06350954 -0.003026402
0.055019703 0.080343746 -0.012420467 -0.011733554 -0.007769575 0.023153719 0.012606594 -0.057451982
0.027684001 0.07181579 0.051390104 0.008151336 -0.031768225 0.042307954 0.04752511 -0.031675484
0.05523358 -0.026152592 0.028692627 -0.07296835 0.04223788 0.005728465 0.031857956 -0.045193948
0.04676404 -0.036822297 0.078094706 0.041249715 0.005291812 0.035908647 0.024744282 0.00046130668
0.05232144 -0.013665798 0.057497013 0.039455045 0.031434957 0.030133288 -0.038201194 0.027791772
-0.05030813 0.004857845 -0.033976246 0.007841061 -0.0015764269 0.0452646 -0.017424518 -0.06480189
0.016622579 0.11195726 0.042383082 0.004207028 0.011207719 -0.024411002 0.059542 -0.058226474
0.036196087 0.046591427 0.029415302 -0.025714803 0.013178229 0.022428362 0.08488723 -0.07098295
00000000: 2c56 a33d 2968 953c c135 92bd c916 883c
00000010: ce00 853d 7153 b0bd 016a 0d3d 6a8e 52bd
00000020: f72e 463d 1395 033d 0518 5a3d 0e9e 273d
00000030: 30fa 18bd f246 683c 832e 6dbc d5d0 11bb
00000040: 98fe 40bd 9e7e 1cbc a870 cdbc 597f 48bc
00000050: 489c 30bc 11b8 6a3c 9766 b13d 8c8c c53d
00000060: 17df 593d ec8f 3c3b bdfd 8fbd 493a db3c
00000070: 9a7b cd3c ee19 1bbd 983d 3e3c 9a53 a43c
00000080: 81dc 7fbd e8f8 36bc 36e1 7bbd afc3 e53c
00000090: 443a 133d ccd0 7b3d 03e7 c0bb 7183 15bd
000000a0: 1f77 d73c 8095 043d e304 283d a940 a03d
000000b0: 0268 443d 2eac cf3b c5a9 08bd 9d49 9e3d
000000c0: 1bf5 bdbc f9a7 2dbd 8f80 083d 7db2 c8bb
000000d0: 5d5f 06bd 5ec7 d63b 7031 21bb 7146 b13d
000000e0: 3056 17bb 4feb ef3d 0a8d 87bc a861 763d
000000f0: 705c a9bb 00b8 0dbd 4a11 82bd 9a56 46bb
00000100: 575c 613d 438b a43d 377f 4bbc 183e 40bc
00000110: eb97 febb deac bd3c e38b 4e3c c552 6bbd
00000120: 8fc9 e23c 2814 933d 6e7e 523d 2e8d 053c
00000130: 661f 02bd 1b4b 2d3d b1a9 423d 27be 01bd
00000140: 9b3c 623d f63d d6bc cd0c eb3c 6e70 95bd
00000150: a101 2d3d d9b5 bb3b 7d7d 023d 4a1d 39bd
00000160: a68b 3f3d fad2 16bd 1ef0 9f3d 76f5 283d
00000170: f066 ad3b f214 133d 85b4 ca3c 89db f139
00000180: 024f 563d 83e6 5fbc fd81 6b3d 9d9b 213d
00000190: f1c1 003d 16da f63c db78 1cbd 92ab e33c
000001a0: e60f 4ebd 8f2e 9f3b ad2a 0bbd cb77 003c
000001b0: 1ca0 ceba 6067 393d ddbd 8ebc dab6 84bd
000001c0: 132c 883c d949 e53d e299 2d3d 1cdb 893b
000001d0: 95a0 373c 95f9 c7bc 50e2 733d e27e 6ebd
000001e0: 5942 143d a7d6 3e3d 5cf8 f03c daa7 d2bc
000001f0: 80e9 573c afbb b73c 5bd9 ad3d 825f 91bd

fc3.weight f4 [2, 128]
0.039926603 -0.058245692 0.040258706 -0.16229872 -0.1313664 0.22697441 0.070297845 -0.048441704
-0.26673073 0.03353104 0.04575035 0.21347794 -0.061481137 -0.044342354 -0.12347264 0.09618476
0.043916807 -0.02961699 -0.036952976 -0.04915929 -0.11282298 -0.021008637 -0.19011368 0.08806462
-0.16214187 -0.30968314 -0.056363802 -0.055362843 0.072292194 -0.17159136 -0.023697484 -0.021480614
-0.06656675 -0.05162102 -0.072795294 -0.2088742 0.045857955 0.42553547 -0.00060027395 -0.043900862
-0.030409036 0.017317662 -0.060051005 0.010931041 -0.23073421 0.22357683 -0.146304 -0.019379914
-0.19557089 0.03524203 -0.446014 0.04527269 0.052713346 0.064487666 0.010789436 0.30957454
0.02275712 -0.113564014 -0.11542074 0.037546393 0.042401437 0.02118255 0.0035348267 -0.07027363
-0.16996215 -0.13851316 -0.22928737 -0.071748964 -0.009357214 0.36341465 0.03872592 -0.05638655
-0.06532513 -0.0055587124 -0.18785515 -0.033021394 0.029246438 -0.112813786 -0.25078338 -0.15353093
-0.018121967 -0.023214877 -0.04045393 0.008483052 0.39587557 -0.047638603 -0.21723576 -0.1121464
0.101468876 -0.13356428 -0.26883677 -0.07174828 0.011526518 0.5188706 -0.00020559145 0.004995774
0.025835456 0.29375654 -0.06027272 0.047323026 0.028721416 -0.07400629 -0.20512861 0.009300385
-0.115791574 -0.16816628 -0.06393671 0.026692437 0.011548431 -0.027524939 -0.084582016 -0.09622681
-0.044310328 -0.20017873 0.08251174 -0.05633524 0.023002824 -0.049344245 -0.050261702 0.07749123
-0.035292625 -0.06261932 -0.28452855 -0.06970746 0.015344648 0.019236894 -0.025891028 0.09016434
0.01438874 0.032700192 -0.080914594 -0.10294718 -0.08531683 -0.3462458 -0.11851056 -0.07436339
0.26959693 -0.02807186 -0.020855932 -0.069369964 0.016753335 -0.12587138 -0.120750315 0.057519358
0.22442445 -0.06544212 0.021195708 0.08550512 -0.023144016 -0.07070464 -0.16404381 0.39635438
-0.079702124 0.08908195 0.18279016 -0.019245755 0.3142888 0.048485618 -0.14073436 0.14441027
-0.08361275 -0.16206639 0.026839616 -0.17112328 -0.06982086 0.1474153 0.0434211 0.10511
0.22841236 0.10947309 -0.035064165 0.20894976 -0.0087168515 0.019997694 -0.03946413 -0.11323222
-0.08292492 -0.025662005 -0.17165542 -0.0935536 -0.092585385 0.14837325 0.24028835 0.09109183
0.058631167 -0.16579032 0.037948307 0.03544217 -0.1267302 -0.094503015 -0.020985547 0.31472483
-0.097213484 0.055204373 0.1265504 -0.10584383 -0.08687794 -0.04549304 -0.042474207 0.029408528
-0.06175416 0.328505 -0.12097567 0.22766522 0.16036712 -0.0037312938 0.3986367 -0.12581399
0.60697716 -0.011183588 0.035194993 0.008737849 0.22132306 -0.15643518 0.0167331 -0.03182069
0.20120032 -0.057682227 -0.049158353 0.099513926 0.0010946633 0.5382584 -0.12359962 -0.0447496
-0.03812907 -0.18834147 0.09790068 -0.101396985 -0.007323246 -0.0047514155 0.06510826 -0.13338657
0.30715075 -0.07505639 0.006162255 0.059429377 0.39103493 0.2056127 -0.072111495 0.062235698
0.025975013 -0.066369176 0.035204094 0.12699641 0.3122837 0.10222423 -0.11988393 -0.07158286
-0.053716153 0.06835373 0.005916024 -0.055926587 0.3326054 -0.018966999 -0.12532383 0.6474323
00000000: 148a 233d 0993 6ebd 50e6 243d a331 26be
00000010: ea84 06be fb6b 683e 51f8 8f3d cf6a 46bd
00000020: ee90 88be d857 093d b864 3b3d f699 5a3e
00000030: a5d3 7bbd 54a0 35bd 39df fcbd 84fc c43d
00000040: 1ce2 333d 549f f2bc 015c 17bd 405b 49bd
00000050: bc0f e7bd 4e1a acbc 29ad 42be 395b b43d
00000060: 8508 26be ca8e 9ebe bbdd 66bd 26c4 62bd
00000070: ee0d 943d a5b5 2fbe 3a21 c2bc 1df8 afbc
00000080: 2654 88bd 9070 53bd b315 95bd 1ee3 55be
00000090: 8dd5 3b3d c9df d93e b45b 1dba 64d1 33bd
000000a0: 5f1c f9bc c5dd 8d3c 0bf8 75bd 1c18 333c
000000b0: 9745 6cbe 53f1 643e b7d0 15be a0c2 9ebc
000000c0: bc43 48be f259 103d f25b e4be db6f 393d
000000d0: f3e9 573d 1c12 843d 2dc6 303c 8e80 9e3e
000000e0: 246d ba3c 4094 e8bd b561 ecbd 3fca 193d
000000f0: 21ad 2d3d 0787 ad3c 8da8 673b 9feb 8fbd
00000100: 8f0a 2ebe 65d6 0dbe 4fca 6abe 1ff1 92bd
00000110: 004f 19bc 7c11 ba3e 129f 1e3d 95f5 66bd
00000120: 2fc9 85bd dc25 b6bb 1a5d 40be 7141 07bd
00000130: 3a96 ef3c ea0a e7bd ae66 80be 3637 1dbe
00000140: 8574 94bc 202d bebc 05b3 25bd 80fc 0a3c
00000150: 34b0 ca3e b220 43bd 0d73 5ebe 03ad e5bd
00000160: eace cf3d 13c5 08be f9a4 89be c3f0 92bd
00000170: b8d9 3c3c b4d4 043f 0994 57b9 97b3 a33b
00000180: e1a4 d33c 4267 963e 87e0 76bd cad5 413d
00000190: 2d49 eb3c 9c90 97bd 3c0d 52be a460 183c
000001a0: 2224 edbd c833 2cbe 40f1 82bd 19aa da3c
000001b0: a135 3d3c fb7b e1bc 5639 adbd 9012 c5bd
000001c0: bf7e 35bd a7fb 4cbe eafb a83d c8bf 66bd
000001d0: 6b70 bc3c 311d 4abd 37df 4dbd b9b3 9e3d
000001e0: 008f 10bd 8f3e 80bd baad 91be c9c2 8ebd
000001f0: 1e68 7b3c b196 9d3c 6c19 d4bc 15a8 b83d
00000200: c0be 6b3c a3f0 053d 8db6 a5bd f9d5 d2bd
00000210: 97ba aebd 2147 b1be aab5 f2bd d54b 98bd
00000220: 9c08 8a3e f5f6 e5bc 0fda aabc d711 8ebd
00000230: 4a3e 893c 6de4 00be f14b f7bd 6b99 6b3d
00000240: 86cf 653e 8506 86bd 9fa2 ad3c 4f1d af3d
00000250: 8598 bdbc 98cd 90bd 1afb 27be f6ee ca3e
00000260: de3a a3bd 9970 b63d 582d 3b3e 46a9 9dbc
00000270: 76ea a03e db98 463d ab1c 10be 49e0 133e
00000280: 293d abbd bbf4 25be c1de db3c f13a 2fbe
00000290: 3dfe 8ebd 09f4 163e 53da 313d e943 d73d
000002a0: eee4 693e 6d33 e03d 719f 0fbd edf6 553e
000002b0: 20d1 0ebc 34d2 a33c 24a5 21bd 4be6 e7bd
000002c0: 8ad4 a9bd 2039 d2bc 70c6 2fbe 0899 bfbd
000002d0: 689d bdbd 28ef 173e 260e 763e 5a8e ba3d
000002e0: 3c27 703d f0c4 29be af6f 1b3d cf2b 113d
000002f0: 90c5 01be cc8a c1bd e2e9 abbc 9d23 a13e
00000300: dd17 c7bd fb1d 623d 6e96 013e a6c4 d8bd
00000310: 10ed b1bd e956 3abd 6ff9 2dbd 27ea f03c
00000320: eef1 7cbd cf31 a83e 18c2 f7bd 1221 693e
00000330: 4737 243e b988 74bb 1c1a cc3e 62d5 00be
00000340: db62 1b3f 5e3b 37bc a028 103d 3229 0f3c
00000350: 83a2 623e 8b30 20be db13 893c 6956 02bd
00000360: 7507 4e3e 3344 6cbd 455a 49bd f5cd cb3d
00000370: ce7a 8f3a 4dcb 093f cc21 fdbd 5b4b 37bd
00000380: 3a2d 1cbd 96dc 40be 2780 c83d 39a9 cfbd
00000390: d7f7 efbb c3b1 9bbb 7b57 853d 7d96 08be
000003a0: dd42 9d3e 2ab7 99bd beec c93b 386c 733d
000003b0: bb35 c83e 238c 523e 31af 93bd dcea 7e3d
000003c0: 8dc9 d43c 90ec 87bd 2b32 103d 590b 023e
000003d0: a6e3 9f3e f05a d13d b585 f5bd 099a 92bd
000003e0: 7805 5cbd 0afd 8b3d 35db c13b 4713 65bd
000003f0: 414b aa3e ae60 9bbc e454 00be 20be 253f

fc3.bias f4 [2]
0.010816994 0.032379907
00000000: c339 313c cba0 043d
