checkpoint_actor_1.pth (torch, 160495 bytes, 6 tensors)

fc1.weight f4 [256, 24]
00000000: 852b 583d 8409 e93c 3207 ef3c 6164 0cbe
00000010: 2582 bbbd c498 80bd e420 0a3d 2e23 76bd
00000020: 5dc6 17bc c036 b33c 6fed e13c cd6a d5bd
00000030: 29d3 e33c 18e5 4abe 3792 b73d f0ef 50bd
00000040: c389 2abd c16b 10bd 58ce 62bc 6a54 d03d
00000050: 588f df3c 3196 03bf aa32 533d 50a7 673d
00000060: 3d61 1e3d 85a9 6e3e 3c2e b13c defb f0bd
00000070: 5f86 8b3d a0aa aa3d 25f4 f63c ac79 57be
00000080: 6ad2 21bb ec85 dc3d 073a 523d f929 13be
00000090: e0b2 1bbd cdc9 743e 32dd 7f3b a1dc 08be
000000a0: 1d72 953c 72d2 4c3d 1480 8bbd 6f4e 8d3d
000000b0: 41c7 8b3d a8ee c93e 619c bbbc b053 fb3c
000000c0: 4c6c 42bd a4b0 80bd ff6d 603d 001d c53d
000000d0: 8b98 3fbc 328c 673d df25 e5bc f736 2d3d
000000e0: 8ac7 6a3d 76f8 c4bc dc7e e43b 8d7a 043d
000000f0: cc6a 38bd 02ff f53c 7947 d63c f4b9 553d
00000100: 74ea c83d 5cd4 ccbb f107 1a3c ea34 e2bb
00000110: 7c2e c1bd 20d0 09bd 207b 643d 06b7 8b3d
00000120: 0733 5c3a b520 8f3e 94eb bbbd 4e66 1abd
00000130: 5fe1 18bd cd89 173d c122 8bbd f5e8 36bd
00000140: 704e 29bd 4f9d 903e 33f5 9cbd a313 6d3c
00000150: 3419 263d 99e1 b7bd ee6e 1cbd afc6 b03d
00000160: 03a3 64ba 5912 a73e 46bf fbbc d830 563d
00000170: 9a9e f43c 6ba1 0cbe 9aa8 863d 70a0 a73d
00000180: 4d33 133d 52cf 01be f3ff 62bd ce76 b73d
00000190: 7d82 53be 4f8e 5b3a ca07 25be b41b 8e3c
000001a0: 85a1 fabc 4bd3 43be 1102 d7bc 4289 de3a
000001b0: 5c09 febb fb4a 653e 01ac 8bbb 5354 8d3d
000001c0: 467b 3c3d b645 d5bd 8355 bfbd de86 103b
000001d0: 295f 1bbe 333b 533e e961 60bd cb4c 903d
000001e0: 240e b33d 99b0 74bd 60ac 0ebd bf22 3cbe
000001f0: fb3f e9bd eb63 653d 90b0 313d 6278 29be
00000200: ccc2 503d b7b6 adbd b75b efbc 0386 abbd
00000210: 59e8 e8bd 4da2 d83d cd2f 1d3d 7aa8 6cbd
00000220: b5c8 673d 03cd 48be a9cf 8f3c c81f 373e
00000230: ca74 bebb 43f2 5a3e ad53 d33c 534c 1c3e
00000240: 3eb2 4e3d e8eb 813d 128a 5e3d f4b1 27be
00000250: 92f0 2ebc 8fec 333d 177b a73d 4303 98bd
00000260: 370d 003e e8af 26bc 2eaf c8bb db26 c0bd
00000270: 23f3 01be 4cb9 043e c733 e0bc d148 afbd
00000280: 6f51 8f3d e5d6 29bc 6c09 da3b fca2 9b3d
00000290: 8422 2ebd 77a0 9ebc 7cc1 963b 45a4 da3d
000002a0: 3f69 29bd cd0c 9bbd 71d0 edbd d322 953d
000002b0: 12fb 0b3e dba1 d23a 34a7 b4bd 873f dd3c
000002c0: 6f83 fabc fc38 c8bb 071e bebc 2592 623c
000002d0: 82aa 883c ae41 db3d 097e 20bc 14c9 ae3c
000002e0: a78b 2a3c 1d72 3abd 0320 d2bb fce5 903d
000002f0: 1674 74bd 7541 093e dca2 8f3d d3f8 513d
00000300: e186 cbbc 5a03 433d 087c 823d f1b7 3ebd
00000310: f28e 58be 53d4 2bbe 9b82 873d 034e 93bd
00000320: d8bb 483d b78c 0b3c 032d f9bc 939a d6bd
00000330: 45bd 05be 31fc 2cbd 8029 27bc 56ee a3bd
00000340: 30ac c03d 93da a7bd 2bea 393d 90b2 3cbe
00000350: 2f53 1bbe 71cc 2b3e 9f44 04bd c647 80be
00000360: fcc4 b8bd 1b14 4f3e ae0d e73c 32a7 6dbd
00000370: 6c44 1c3e c4cd cc3d 1816 a43c 959a 25bd
00000380: 9486 2abe 04b0 2c3e 1deb bd3d 8628 52bc
00000390: d6b2 5d3d 6fe4 2c3e 0869 423d a63d aabd
000003a0: 93f1 97bd 857e 363e fa2e 96bd 4da4 4f3d
000003b0: ab1e 6fbd 6882 fbbc 8f84 c13c e84c c93c
000003c0: 2545 e0ba 9960 4a3e b4f5 c2bc 791c b73a
000003d0: 7545 2d3d 4a7c d83d bb87 87bd 6f28 6a3d
000003e0: 0c88 803d 7b41 783e a6fc 6abd 42a4 783c
000003f0: c26e cd3c b3cb bf3d e634 cabd 4229 163d
0.05277588 0.02844692 0.029178236 -0.13710167 -0.091556825 -0.06279138 0.033722773 -0.060092144
-0.009263602 0.021876693 0.027579037 -0.10420761 0.02781065 -0.19813955 0.08963435 -0.051010072
-0.041635286 -0.035259012 -0.0138431415 0.10172351 0.027290031 -0.5140105 0.05156199 0.056556046
0.038666952 0.23306854 0.021628492 -0.1176679 0.068127386 0.083333254 0.030145714 -0.21042508
-0.0024692067 0.10767731 0.05132487 -0.1437148 -0.038012385 0.23905106 0.0039041755 -0.13365413
0.01824289 0.050005384 -0.06811538 0.06899726 0.06825114 0.39439893 -0.022901716 0.030679554
-0.04746656 -0.062836915 0.0547924 0.09624672 -0.011694084 0.056530185 -0.02797216 0.042288747
0.0573192 -0.024044257 0.0069731306 0.032343436 -0.045023724 0.030028824 0.026157128 0.05217929
0.098103434 -0.006250901 0.009401307 -0.0069032805 -0.09432694 -0.03364575 0.055781484 0.06822018
0.00083999377 0.2795464 -0.09175792 -0.03769522 -0.037324306 0.03699665 -0.06793738 -0.04465576
-0.04133457 0.28245017 -0.076639555 0.014470014 0.04055138 -0.08978576 -0.03819173 0.08631646
-0.00087218004 0.32631186 -0.030730855 0.052292675 0.029860783 -0.13733451 0.06575127 0.08184898
0.035937596 -0.12676743 -0.055419873 0.08958207 -0.20655246 0.00083753926 -0.16116253 0.017347194
-0.030594597 -0.1912357 -0.026246103 0.0016978162 -0.0077525806 0.22391884 -0.004262448 0.06900849
0.046016 -0.10413687 -0.09342482 0.0022053043 -0.1517302 0.20628051 -0.054780874 0.07045897
0.087429315 -0.05973873 -0.03483236 -0.1837263 -0.113891564 0.056003492 0.043381274 -0.16549829
0.050967023 -0.08482116 -0.029218538 -0.0837517 -0.11372442 0.105778314 0.038375665 -0.05777786
0.056587894 -0.19609456 0.017555075 0.17883217 -0.005812262 0.21381478 0.025796736 0.1526349
0.050462954 0.06343824 0.054330893 -0.16376477 -0.010677474 0.04392677 0.081777744 -0.07422497
0.12505041 -0.010173775 -0.0061243987 -0.09382411 -0.12690406 0.1296131 -0.02736844 -0.085588105
0.06997954 -0.010366176 0.006653955 0.07599446 -0.042513385 -0.019363625 0.004600702 0.10675863
-0.041360136 -0.07570801 -0.11612023 0.07282033 0.13669994 0.0016069965 -0.08820954 0.027007831
-0.03058025 -0.0061103087 -0.023207678 0.013828789 0.016682867 0.10705887 -0.009795674 0.021336116
0.010409272 -0.045518983 -0.0064125075 0.07075116 -0.05968102 0.13403876 0.07013485 0.051262688
-0.024844589 0.04761062 0.06371313 -0.04656214 -0.2114828 -0.16780214 0.06616708 -0.07192614
0.049007267 0.008517436 -0.030416971 -0.104787014 -0.13060482 -0.042232696 -0.010202765 -0.08004443
0.09407842 -0.081959866 0.045389336 -0.18427491 -0.15168451 0.16777207 -0.032292005 -0.2505476
-0.09021947 0.20222513 0.028204765 -0.058020778 0.15260476 0.10000184 0.020030066 -0.040430624
-0.166529 0.1686402 0.0927336 -0.012827044 0.05412563 0.16884016 0.047463447 -0.0831254
-0.074191235 0.17821701 -0.07333179 0.0506938 -0.058378857 -0.030701831 0.02362278 0.024572805
-0.001711045 0.19763412 -0.023798801 0.0013970278 0.042302568 0.10570581 -0.066176854 0.057167467
0.06275949 0.24243729 -0.05736985 0.015175881 0.025077228 0.093650244 -0.09873371 0.03666044

fc1.bias f4 [256]
00000000: 2b8b a5bb 0146 813d 6384 7d3c 2401 2d3e
00000010: 64e5 dfbd 60f7 16be cef8 a4be 7584 acbd
00000020: 95d5 c7bd b5ea 0bbe ce94 a13d a3e5 513d
00000030: 2c6a 8e3c 8819 d4bc 05b3 c13d d0f7 693e
00000040: 2bc0 12bd de4c ac3d e5e1 d5bb 35b8 63be
00000050: 3acc 703d eb43 60be ef7c c63d 8cca 75bd
00000060: 3584 99bd 34df 8fbd 17b2 033d 5688 383e
00000070: 920d 6ebe d039 0dbd cac5 56bb 3616 40be
00000080: 7a2d 0fbe c195 3d3e da34 83bd 27b7 8f3c
00000090: 9559 85be ab4d 873e 5486 45be f3ce 973d
000000a0: de9b 6fbd 04fe 2d3d 3a88 323d ecaf 1dbe
000000b0: dec7 99bd fb2b 16bd 699f ddbd a877 76be
000000c0: 603b 2e3e 79c3 453e e578 e5bc ff6a 4b3e
000000d0: c5f9 b8bd 80c2 f0bb 266b 023e 4606 92bd
000000e0: f71d b03d 9e87 eebb 2c20 f2bd f988 593e
000000f0: f01c 203c 40c9 7d39 84df 03be 20eb f2bd
00000100: e9e0 e8bd 810e 1dbe b532 88be 3f99 413d
00000110: dcaa 82be 083f 0dbe b523 cfbd c1c3 63bd
00000120: d538 9abe 9ad8 c6bd dea9 80bd a44b 8d3e
00000130: 7c19 3f3d 88ef 0a3e 5f0f 1abd 0b84 0d3e
00000140: 5ad7 07be 6a7a b9bd 266d 68be 1e05 8abe
00000150: cc12 923d 7812 28be 78ba 35be 8935 213d
00000160: 7367 3ebd 0cbb 3a3d 6467 dbbd 39ad 323d
00000170: 347f 3dbe 4f11 0b3d 11e5 fbbd 21ba 17be
00000180: 5a62 0a3e 61a5 56bd be2b 5c3e 7b1f 263d
00000190: f3a2 363e d937 263d 7bde 033e 8d51 41bd
000001a0: 657e 4ebe 581d aa3d fc8d 273d 15a5 2f3d
000001b0: b619 2a3e d592 c33d 63ea 15be 1564 a7bd
000001c0: 9be9 82bd c8db 4abe 00dd 4dbd 8188 1f3e
000001d0: b1c9 fc3d 7206 1dbe 8fa2 67be 668f 893d
000001e0: a32d 31be b674 e0bc 5535 703e 93f6 c83d
000001f0: 1912 6d3d b52e 30bd f712 2c3d 295d 92bd
00000200: e5dc 833e c1a4 1abd 935d 3ebe b225 ad3d
00000210: a3b6 0abe d473 363e dc8f 4c3e 7c31 5e3e
00000220: acde b13d ed74 9d3d 4ebc 0d3d d9b7 f73c
00000230: f134 ba3c 73be 8ebd c366 833e ff75 063e
00000240: e83d 0a3e 2060 3bbe 1395 08be 8575 bebd
00000250: cbf4 5e3c 2b1b 563e b25c bf3d c1ca 5b3d
00000260: 7e87 063d b550 5cbe fadd 533e 6bc6 483e
00000270: 3450 6e3e ce40 32bd 3c46 443d af62 713e
00000280: 2120 fbbd d115 0d3e bc3c da3d 548d a4bd
00000290: e5a3 10be 42c2 633e d73c 223d 5045 873c
000002a0: 1934 303e 0c2b ad3c c0cc eabc 8c62 9bbe
000002b0: cec5 f8bd abb3 3cbe 37bf 6cbe 216b 52be
000002c0: 031b 533d b128 fb3d c825 9ebd 4526 543d
000002d0: 790b 51be 8ef8 8a3e 496c 5a3e 7dca 2e3e
000002e0: 7ea7 993d 2c1e 08be f788 acbd dfcc 8bbe
000002f0: 2aa3 7d3b 1ada 583d 0022 1d3d 4837 4bbd
00000300: 06e5 77bd 72d9 50be 22f8 843e 8598 9fbd
00000310: 372a 60be fe7b 3fbd 286e 773e 9353 423e
00000320: 0e67 4d3d 6a48 cf3c 22e1 083e 5dd5 8f3b
00000330: dfe6 033e b01d 483e c2da bfbc 7642 2b3e
00000340: 0234 063c e2f7 c0bd 5878 c93d 1959 0dbe
00000350: 4dc4 723e 15eb cdbd dcc8 38bd a064 5dbe
00000360: 15f7 b33c 363b 3e3e c0b1 cb3d 8b7c bcbd
00000370: b7df bbbc 01c4 d1bc 7f5b a63e 2d93 97bd
00000380: 79b3 84bd ee4f 6abe 684e d8bc 18b6 afbc
00000390: 7f40 bbbd 56d1 4ebe 5630 9d3e bc1c 8c3d
000003a0: f46a 293c 5b38 38bd 7f7a ff3d bace 3bbc
000003b0: 3a86 25bd ca23 a43d 38bc ee3d 0da5 783e
000003c0: 7abd 0cbe ebcb 91bd 8646 823d d534 1b3c
000003d0: e63b 74bd 6043 343e 3273 c9bd 21ab 27be
000003e0: a33c 14be 54c5 41be 1287 3bbe 7b3d e3bd
000003f0: 6880 573e b4a9 843e d29e 7abe e15b 5a3e
-0.0050519905 0.0631218 0.015473458 0.16894966 -0.10932425 -0.14742804 -0.32221073 -0.08423702
-0.097575344 -0.13663752 0.0788971 0.05124439 0.017384611 -0.02589108 0.094579734 0.22848439
-0.035827797 0.08413099 -0.006527173 -0.22238238 0.058788516 -0.21900909 0.09691798 -0.060007617
-0.074959196 -0.070249945 0.03215226 0.18020758 -0.23247364 -0.034478962 -0.00327717 -0.18758473
-0.13982192 0.18514158 -0.06406565 0.017543389 -0.26044908 0.26426443 -0.19289523 0.07412519
-0.058498256 0.042478576 0.043586947 -0.1539914 -0.07508825 -0.036663037 -0.10821421 -0.24069083
0.17014837 0.19312848 -0.028011749 0.19865035 -0.09032015 -0.007347405 0.12736186 -0.07130103
0.08599465 -0.0072793504 -0.118225425 0.21243657 0.009772524 0.00024202932 -0.12878233 -0.11861253
-0.11371023 -0.15337564 -0.26601186 0.047265287 -0.2552098 -0.13793576 -0.101142325 -0.055606607
-0.30121484 -0.09709282 -0.062823996 0.27596772 0.046655163 0.13567936 -0.037612315 0.13819902
-0.13265744 -0.09056552 -0.22697887 -0.2695703 0.071324915 -0.16413295 -0.17746913 0.039357696
-0.046485376 0.045588538 -0.107130796 0.04362223 -0.18505555 0.033952054 -0.1229955 -0.14817096
0.1351408 -0.05240381 0.21501061 0.040557366 0.17835598 0.040580604 0.12877838 -0.047196914
-0.20165403 0.08306378 0.04090689 0.042882044 0.1661137 0.0954949 -0.14640193 -0.08173386
-0.06392213 -0.19810402 -0.05025959 0.15579416 0.12343157 -0.1533449 -0.22620605 0.06716804
-0.17302565 -0.027399402 0.23457845 0.09812655 0.057878587 -0.043013293 0.042010274 -0.07146675
0.25754467 -0.037754778 -0.18590383 0.084544554 -0.13546233 0.17817622 0.19976753 0.21698564
0.086850494 0.076883174 0.03460341 0.030239033 0.022730323 -0.06969919 0.25664338 0.1313095
0.13500178 -0.18298388 -0.13338117 -0.09299759 0.013608168 0.20908801 0.09343852 0.053660158
0.03284406 -0.21515162 0.20690146 0.1960694 0.23272783 -0.043518834 0.047918543 0.23572801
-0.122619875 0.13777854 0.106561154 -0.08034769 -0.14125021 0.22242072 0.039608803 0.016512543
0.17207374 0.02113869 -0.028662086 -0.30348623 -0.12147103 -0.18427913 -0.23119818 -0.20548679
0.051539432 0.12263621 -0.0772205 0.05179431 -0.20414533 0.27142757 0.2133037 0.1706943
0.0750265 -0.1329276 -0.084245615 -0.27304742 0.003870199 0.052942373 0.038362503 -0.049613267
-0.06052115 -0.20395449 0.2597056 -0.07792763 -0.21891104 -0.046749108 0.24163115 0.18977194
0.05014711 0.025303084 0.13367131 0.0043894486 0.12881039 0.19542575 -0.023419742 0.16724572
0.008191111 -0.0942228 0.09837407 -0.1380352 0.23707695 -0.10054604 -0.04511343 -0.21620417
0.021968404 0.18577275 0.099460125 -0.09203442 -0.022933824 -0.025606157 0.3249168 -0.074011184
-0.06479544 -0.22882053 -0.026404575 -0.021449134 -0.09143161 -0.20197043 0.3070094 0.06841418
0.010340441 -0.04497562 0.12474536 -0.011462862 -0.04041121 0.08014639 0.11656994 0.24281712
-0.13744155 -0.071189724 0.063611075 0.009473045 -0.059627436 0.17603827 -0.09836425 -0.16373874
-0.14476256 -0.18922931 -0.18313244 -0.11095711 0.21045077 0.25910723 -0.24474648 0.21324112

fc2.weight f4 [128, 256]
00000000: ff71 eabc dc29 0abd a968 883d 5ce3 4b3a
00000010: 74a5 ad3d 81bd f33d 2e03 593d a6e1 e83c
00000020: 425b d5bd 2c87 d03d 71b9 9abd 3e8c acba
00000030: cb2a 8ebc 9f4a 7abd 97cd 653d 61d7 203e
00000040: f191 ec3d 231c aabc edae 9cbd eff5 dabb
00000050: f474 27be c4d2 76be a0ea 593d 06c1 49bd
00000060: e70c fcbc 1bf2 3abe ba0f 3ebe ff46 10bd
00000070: 3863 8fbd 92e7 11bd b83e 303e a9f9 ceba
00000080: 94e7 8d3d 78a9 823d f538 393d 133a aebb
00000090: c4f5 96bc 3dd7 f3bd eb82 af3d 8cad ae3d
000000a0: 72ea ecbc 83cd c7bc 83a0 81bd acc8 43be
000000b0: f090 e63c 5299 be3d 0f8e 103e 9093 9cbc
000000c0: b179 50bd 09bd b8be e44a 7cbd c8ce 5fbd
000000d0: 30a1 c6bc f995 dbbd 4580 473c c525 19be
000000e0: 0c46 223d ef7e 833d 5e83 acbd 4de2 fdbc
000000f0: 560c 39be e2e4 3f3d a245 263e 696e 093e
00000100: 4619 99bd 2cba a5bd 3ead 52be b4f1 953d
00000110: e06f 0cbd 3aed a4bd 6a81 213d 2b7d e3bc
00000120: 3e35 3a3d b8b5 cb3d 798c 663c 81c1 ccbd
00000130: acd0 cfbc 1929 eebe 50fe eebc e6f7 4fbd
00000140: 90cc aebd d020 1fbd 2bce 2f3c ac9d cd3d
00000150: acac a13d add0 bdbd 99ca 533c 57c0 51be
00000160: 862e b9bd 1d4f c63d 5ac0 5bbd 12b7 563d
00000170: 4896 0dbe f037 f73d b2cd 37bd 3d53 89bd
00000180: ef14 ca3d 7dc5 97bd 7f7e 223e cabe 28be
00000190: b02c 54bd 5d85 8a3d c8ba 863c fae7 1f3e
000001a0: bca2 3abd d31e 1d3c 81b3 d63d c5d9 b7bc
000001b0: 7942 db3c e274 d03d 9598 81bd 5d20 c03c
000001c0: 21dd b5bd 0cee 793d 30ce bbbd affa 843d
000001d0: ffe6 963d 718b a93d 5864 afbe db98 d13d
000001e0: c817 173e 71d8 07bd 134a 1ebe 787c 3b3d
000001f0: 927f febd f1bd 763d 9002 ef3c 1d61 0f3d
00000200: 0c0e 47be f0f1 df3b 8ea1 9e3d 80e4 27bd
00000210: 6c5e ac3c 819c ff3d 47a9 07be f411 26be
00000220: 582c 793d 698a d93c d951 e2bd 2533 2ebd
00000230: 52d8 f03c 9268 e2bc 20e9 243e 4f82 7bbe
00000240: 5bc1 a1bc e742 483d 1c7e 7b3d 2f3b 20bd
00000250: 01da 02bd 3916 a5bd 29d5 b93d 9ea7 f13a
00000260: a80d 1f3d 9a86 1fbe 55c5 ebbc 87df 223e
00000270: 8f60 10be 5a1b 6a3d 28bf 21bd f6e8 a33d
00000280: ae0e 023e faa5 06be bab1 a33d 4999 0bba
00000290: de18 d73d 6bb6 12bb 9288 21be c7c4 6d3d
000002a0: 5749 ae3d 9769 3fbe efb2 ebbd 7c1c 24bc
000002b0: 01d4 b4bd b0f3 c3bd ecb3 33be e03b b93a
000002c0: 0a2b 113e 7e50 abbd 91fa 9f3a d555 d73c
000002d0: a808 ec3d 8a28 77bc 2b37 ce3d c450 5bbd
000002e0: 3b16 c33d d6e7 db3d 9db2 ecbb d866 85bd
000002f0: 4017 3cbd 8eb6 ca3d b62d babd 1ef6 45bd
00000300: 05ee 96bb 81af a0be 1552 73bd 07d2 1c3e
00000310: b7ad 0bbd a97f edbc 0cf2 b63d 5a10 afbd
00000320: 555f 113b 9d34 ee3c ab30 91bc 7557 e03d
00000330: 232f d23d 55dc b23d 13c3 01be c9e8 343e
00000340: 76b8 1a3d 2420 1e3e 589e 83bd 31c7 0e3e
00000350: c2f9 023e 0590 003e 5e9f cebd 1a78 95bc
00000360: dd92 03be 218f 843d a098 12be 927e 34bc
00000370: d7d8 923c ce88 3cbc f664 1bbe 50d2 353d
00000380: 2b4e febd 68ab d9bc 3b6f 93bd 194f 3f3d
00000390: 5c27 303d 1a0c 4d3d 0e7a a43c 029c 923d
000003a0: 84c7 38bd 1439 903c 4212 e2bd 7ff2 853d
000003b0: ce5c 1f3d c38a 1dbe 2fb5 893d be88 773d
000003c0: 6bb4 963d c9d5 5abe 3d4f cd3d b157 3cbe
000003d0: a00e 153d 2cec 463d 4038 013e 0750 fcbc
000003e0: 41d4 de3d 1d6f babc ce99 08bc 8509 af3b
000003f0: 8f9c efbd bbaf c23e b1d3 68be 5ee8 4dbe
-0.02861881 -0.033731326 0.06660587 0.00077777146 0.08478823 0.119013794 0.052981548 0.02842791
-0.10417797 0.10182032 -0.075549014 -0.0013164354 -0.01735439 -0.06110632 0.05610427 0.1570716
0.115512736 -0.02076537 -0.07650552 -0.0066821496 -0.16353208 -0.24103838 0.05320227 -0.049256347
-0.030767871 -0.18256418 -0.18560687 -0.035223957 -0.07001346 -0.035621233 0.17211425 -0.0015790957
0.06928936 0.0637998 0.045220334 -0.0053169816 -0.018427737 -0.11906288 0.085698925 0.08529195
-0.028920386 -0.024389988 -0.06329443 -0.19119519 0.028145283 0.09306587 0.14116691 -0.019113332
-0.050897304 -0.36081722 -0.06159486 -0.05464056 -0.024246782 -0.107219644 0.012176578 -0.14955814
0.039617583 0.06420695 -0.08423494 -0.030991698 -0.18071112 0.04684914 0.162375 0.13421024
-0.07475524 -0.0809215 -0.20573899 0.07321492 -0.03428638 -0.0805306 0.03943006 -0.027769646
0.045460932 0.099467695 0.014071577 -0.099978454 -0.025368057 -0.4651573 -0.029174 -0.050773524
-0.08535111 -0.03884965 0.010730307 0.10039839 0.07894263 -0.09268317 0.012926721 -0.20483528
-0.09042077 0.096830584 -0.053650238 0.052420683 -0.13826859 0.12071216 -0.0448739 -0.067053296
0.09867274 -0.07410715 0.15868567 -0.1647903 -0.05180043 0.06763718 0.016446486 0.15615836
-0.04556535 0.009589869 0.104834564 -0.022442708 0.026765095 0.101785436 -0.06327931 0.023452932
-0.088800676 0.061018035 -0.091701865 0.064931266 0.07368278 0.082785495 -0.34256244 0.10234233
0.14755166 -0.0331654 -0.15457945 0.045773 -0.12426676 0.060239736 0.029176027 0.035004724
-0.19438952 0.006834261 0.07745658 -0.0409894 0.021041118 0.124810226 -0.13248168 -0.16217786
0.060833305 0.026555257 -0.110507675 -0.042529244 0.029400025 -0.027637754 0.16104555 -0.24561428
-0.01974552 0.048891928 0.061399564 -0.039118942 -0.031946186 -0.08060879 0.0907386 0.0018436795
0.038831383 -0.1557869 -0.028780619 0.15905581 -0.14099334 0.05715499 -0.03948894 0.08003418
0.12700912 -0.13149253 0.07992883 -0.00053252705 0.1050279 -0.0022386562 -0.15774754 0.05804899
0.08510082 -0.18692623 -0.11508738 -0.010016557 -0.08829499 -0.09567964 -0.17549103 0.0014132224
0.14176574 -0.08364962 0.0012205412 0.026286045 0.115250885 -0.015085349 0.10069116 -0.05354382
0.095257245 0.107375786 -0.007223441 -0.065137565 -0.04592061 0.09898101 -0.0909075 -0.04833042
-0.004606011 -0.313839 -0.05940445 0.15314494 -0.034101214 -0.028991537 0.089328855 -0.08548041
0.0022182066 0.029077822 -0.017723402 0.10954181 0.10262897 0.08733431 -0.12672071 0.17666925
0.037773572 0.15441948 -0.06426686 0.13943173 0.12790588 0.12554939 -0.10088991 -0.018245745
-0.12848993 0.06472612 -0.14316034 -0.011016505 0.017925663 -0.011507226 -0.15175232 0.044390023
-0.12417253 -0.02657099 -0.0719895 0.046706293 0.043006286 0.05006037 0.020077731 0.071586624
-0.045112148 0.017605342 -0.11038639 0.06540393 0.038906865 -0.15384965 0.06724011 0.060433142
0.07358631 -0.21370615 0.10024879 -0.18392827 0.0363909 0.048565075 0.12619114 -0.030799879
0.10880328 -0.022758061 -0.008337451 0.005341711 -0.11699783 0.38024697 -0.22737004 -0.20108172

fc2.bias f4 [128]
00000000: d5a9 db3d 7ed6 04bd 7bab 00be 7bed 903d
00000010: 4766 923c da32 743b 4a21 063e eff7 1ebd
00000020: 3b66 27bd 7cdf 433e bca2 0b3c 09fd 343e
00000030: 5cf9 cebd 83d3 dc3d df74 8b3d c9b1 973d
00000040: 6b20 6ebd 917c f4bd 9c96 f8bd fd89 cdbc
00000050: ed45 a2bd 0dd3 30be d135 68bd d323 e63b
00000060: a0b2 223e 76ad 813d cc41 0abe a853 9c3c
00000070: c1db 8bbd 207b 97bd aa51 9bbd 73bd 083e
00000080: 0b2d a6bd dc5b 313d 7787 01be 1ae3 053e
00000090: b6c7 7b3c e582 37bd 9de2 8d3c de5f 05be
000000a0: 321e 52bd a6ce a93c f71b f9bc a4ac 4e3e
000000b0: c9ea f03d 1be5 c5bd 3c8d 98bd 0b7e 913d
000000c0: 5251 b9bd e635 983c 6a83 b2bd 96ac dc3d
000000d0: 315a b23c 6be0 6cbd 9b81 03bb 5935 1f3e
000000e0: 24af 123e e818 8b3c fd5d 46bd e1b4 003e
000000f0: 1ca8 5fbe 411c 8f3d 2113 003e 5fac 77bd
00000100: 082c 053e 8888 233e 8be3 f3bd 7748 febc
00000110: 4774 aabd e522 bc3d 8796 003e 87f0 633c
00000120: cb4b 0c3d ec11 363d 1e2e e33d 72da 02bd
00000130: 4955 10be 1bc4 99bc 5572 87bd 048d e9bd
00000140: af66 92bd 5c58 60bd a086 90bd 064a 893d
00000150: 338d 393e bfa0 8f3d be1f 83bd 0fa8 6abe
00000160: af8f 41bd 1d85 00be 2c85 083e 219a b73c
00000170: 86bc 3cbd 9a78 bcbd 7e77 c6bc 622d 393b
00000180: 2999 d33d f8c8 b33d 65ac 0e3e 9eb5 353e
00000190: 2f0f d13d 9f54 d5b8 7f1c afbd 2e38 243e
000001a0: 9b03 bfbd a0fd e5bd 9fb6 36bd 102f cd3d
000001b0: 5ea1 01bd 80c5 253e 1591 e2bd d8c9 00be
000001c0: a23c 3dbe 7aa0 08be e52a 8cbd ca7d 97bd
000001d0: 7888 0ebe 5071 98bd 96b0 643e 5fde fabd
000001e0: 3f34 df39 14b6 a93c f67c 993c 7a46 81bd
000001f0: 91bc cf3c 46ef 203b 2d80 853d e9c7 4fbd
0.10725752 -0.03243112 -0.12565415 0.07076546 0.017871035 0.0037261755 0.13098636 -0.038810667
-0.04086898 0.19128221 0.008522686 0.1767465 -0.10106155 0.1078253 0.06809401 0.07406957
-0.058136385 -0.11937822 -0.121381015 -0.025090212 -0.079234935 -0.1726801 -0.05669195 0.0070233135
0.15888453 0.06331913 -0.13501662 0.01908286 -0.06829024 -0.07396531 -0.075839356 0.13353519
-0.0811406 0.043300495 -0.12649332 0.13074914 0.015367439 -0.044802565 0.017319972 -0.13024852
-0.051298328 0.02072842 -0.030408842 0.20183045 0.11763532 -0.09662839 -0.07448813 0.07104119
-0.09048714 0.018580388 -0.087164715 0.10775106 0.021771522 -0.05783121 -0.0020066265 0.15547694
0.14324623 0.01697965 -0.048429478 0.12569 -0.21841472 0.06987811 0.12507297 -0.06046712
0.13005078 0.15970051 -0.11908635 -0.031040413 -0.083229594 0.09186343 0.12557422 0.013912327
0.03425197 0.044450685 0.110927805 -0.031946607 -0.14095034 -0.018770268 -0.06613604 -0.1140385
-0.071484916 -0.054771766 -0.07056928 0.06703572 0.1812027 0.07013082 -0.06402539 -0.22915672
-0.047256168 -0.12550779 0.13332051 0.022412362 -0.046078227 -0.092026904 -0.0242269 0.002825581
0.10331947 0.08778566 0.13932951 0.17745063 0.10207974 -0.000101723934 -0.08550357 0.16037056
-0.093268596 -0.11230016 -0.044607755 0.10018742 -0.031648032 0.16188622 -0.110628285 -0.12576997
-0.18480161 -0.13342467 -0.06844119 -0.07397039 -0.13919246 -0.07443488 0.22332987 -0.12249445
0.000425728 0.020716704 0.018736344 -0.063122705 0.02535847 0.002455668 0.06518588 -0.05072776

fc3.weight f4 [2, 128]
00000000: 09b7 ec3b 581a 82be 329e 83bd a9bc af3e
00000010: 6ba9 cdbd 6c81 0ebe 4396 c43c 8e4a b53c
00000020: 3e6b 13be 24b9 243e 864b 90bd a326 8b3d
00000030: 3285 f0bc e807 433d 9f57 013d 3aaa 3d3e
00000040: e350 36be a892 88bd efad ecbd 471c 7dbd
00000050: 860c b4bc 84bb 39bf 1fa3 aebd b6d8 39bd
00000060: c0ae e93d 6320 0a3d fd20 ecbd a376 893d
00000070: 517e d3be fbf2 26be f5b1 60be bdd2 113d
00000080: 0733 ebbd fc01 f13c ac00 a9bd c98b a63d
00000090: dae9 9abe b07a 92bc 91bd 503c 1c87 b9bd
000000a0: b1e9 2bbe 61ea 46be 85d0 97bd 98b0 d33d
000000b0: 0051 503d 2bec a7bd 0308 98bd bc98 023d
000000c0: aaee aebc 3be9 103e c5ff 023f ee3b c83d
000000d0: ce0c 263e 18f3 94be 512e 823c 03a2 0b3d
000000e0: c2d9 913d 8ac6 fdbe af74 36be c903 a33d
000000f0: d6cf 7cbe 405e 133f f270 bf3e 071e 73be
00000100: 4ce6 ab3d 8310 d33c 2e12 c9bd b48a 9bbd
00000110: 921a 14be 2f65 93b9 7bfa a53c f08f a63c
00000120: 21c3 42be 6abd 1c3d 031d a43e 95ce ebbd
00000130: 0410 e6bd 8a67 ffbd a3f7 98bd 58fa e2bc
00000140: fa67 ed3b 5251 0dbe a65e b4bc 0f78 0d3d
00000150: 2be7 293e 7b4f dd3c b041 bebd 2d6f 97be
00000160: cda9 23be 9c8f c8bd d461 ab3d c76c 9bbd
00000170: df42 37bd 78b1 3abd 247f 84bd 62c8 70be
00000180: be19 18bd 8c27 c23d 96c8 8c3d 1056 893e
00000190: 9281 fc3d 6b97 29be 4ded 3dbd 1fd8 063d
000001a0: 839d a6bd e74a 43be 4568 b1bd b4a6 053d
000001b0: b399 58bd b32b 243d 2a5f 25bd 5514 18be
000001c0: 378c b1bd 61e6 adbe 2225 8cbe ed9d b4bd
000001d0: 19df 32be e88b cabe 7c2b 493c 05c4 a0bd
000001e0: ba47 2a3b 4d19 e6bd 0909 3cbe 49fb 0ebd
000001f0: 0150 24be dddf 63be 9678 0e3c 3bd9 d33b
00000200: a18c c23e 705b 923e 1756 af3d 544a 5c3e
00000210: 0c88 783e 76b2 213e 735c f6bc ee9d d6be
00000220: f9f9 0e3e 9511 343c 75cb 453e 8b4f 313d
00000230: 7dc0 86bd 0ffd 343d 89c3 92bd b3a3 623e
00000240: 03e6 3d3e 365d 9ebe d251 62bd 4c64 51be
00000250: d606 1dbe c694 3fbe aeee a23e 2416 ef3c
00000260: b40c 483e b93b dabd 364e 083f 1afa 01be
00000270: d4c3 ad3e 67e7 833d e9b1 c8bd 0978 13bd
00000280: 1cd8 ab3e aa48 bcbd 7c86 c53d e76f e2ba
00000290: 2d4d 463f e639 b4bd bc68 7bbe ddd8 13bc
000002a0: d579 5c3e f5c8 b83e 0b6b 4a3e 47ac 6cbd
000002b0: 2ac6 9dbd 0be2 313e f91c 1abe a197 dabd
000002c0: 52a4 ec3e 7360 d43e 12ed fbbe b7fc 403d
000002d0: 0277 ec3e 84ae bc3c 1771 24be fadf 36bd
000002e0: f3f4 37bc b43e 82bd ca00 a3bd cbf2 133f
000002f0: cdc7 11be bfb4 923e 97ce 323d e9dc e2bd
00000300: a903 29bd c0c1 2abd 461a 913e 293f 33be
00000310: c3b2 693d aa69 1a3e d2a6 29bd 64c5 90bc
00000320: a71a da3d 812b ecbd 5acd c8bd eed7 3cbd
00000330: e26e 25be b80b 093e 33ee c83c fcbb 5abc
00000340: 1a1c afbd 593b 0b3c 22a5 10bd 654c fa3e
00000350: c236 523e 4706 703e 399e c93c 6f3e edbe
00000360: 0a9e 373e d2cb 3b3e e21f 46bd 9377 e23d
00000370: b7b9 923e 1798 d3be e030 eb3d 292a 663e
00000380: be51 f73e 1677 313e a2f8 07be 3c96 bf3d
00000390: 74d6 033e 8bc4 b93d 333a 13be 0a98 2dbd
000003a0: b915 85bc cf19 023e 985d a0bd 8aec 29bd
000003b0: 1793 4c3d 399e 80bd c1d2 70bc 76ad 1cbd
000003c0: 265d b9be 9a26 d2be c9d8 3fbe ef35 3a3b
000003d0: 8b01 dabe e8fb be3d 283a 023f 1c2e 9cbe
000003e0: 3597 5dbe de87 db3e fd79 2d3d 71bc 16be
000003f0: 82ed c8bd bf92 53bd 6c9f 863e df91 d5bd
0.007223968 -0.25410724 -0.06426658 0.34323624 -0.100420795 -0.13916558 0.023997432 0.022130277
-0.14396378 0.1608625 -0.07045655 0.06794479 -0.029360387 0.04761496 0.031577703 0.18521968
-0.17804293 -0.066685975 -0.11556613 -0.061794546 -0.021978628 -0.7255175 -0.08527207 -0.045372687
0.11410284 0.033722293 -0.115297295 0.06712081 -0.4130731 -0.16303627 -0.21942885 0.035601366
-0.11484342 0.029419892 -0.08252081 0.08132131 -0.3025654 -0.017880768 0.012740509 -0.09058973
-0.16788365 -0.19425346 -0.07412819 0.10336417 0.050858498 -0.08199342 -0.07423403 0.03188394
-0.021354038 0.1415147 0.51171523 0.09777056 0.16215822 -0.29091716 0.015891226 0.034090053
0.07121612 -0.49565536 -0.17817949 0.07959706 -0.24688658 0.5756569 0.37390858 -0.23741923
0.08393535 0.02576471 -0.098179206 -0.07594815 -0.14463261 -0.00028113413 0.02026104 0.020332307
-0.19019748 0.038266577 0.32053384 -0.11514012 -0.112335235 -0.124709204 -0.07469108 -0.027707264
0.007245061 -0.13800552 -0.022017788 0.034538325 0.1659209 0.027015438 -0.09289873 -0.29577008
-0.15982743 -0.09793016 0.083682686 -0.07589107 -0.044741508 -0.045579404 -0.06469563 -0.2351394
-0.037133925 0.09480199 0.06874196 0.26823473 0.12329401 -0.16561668 -0.046368886 0.032920953
-0.08135512 -0.19071542 -0.08662466 0.032629684 -0.052880954 0.040080737 -0.04037396 -0.14851506
-0.08669322 -0.33964828 -0.2737208 -0.088191845 -0.17467918 -0.39559865 0.012278434 -0.07849888
0.0025982694 -0.112352945 -0.18362822 -0.034907613 -0.16046144 -0.22253366 0.008695742 0.006465105
0.37997916 0.28585386 0.08561342 0.21512729 0.24270648 0.15790734 -0.03007338 -0.41917366
0.13962545 0.01099052 0.19315894 0.04328875 -0.06579683 0.044186648 -0.071662016 0.22132759
0.18544774 -0.3093049 -0.05525381 -0.20448416 -0.15334639 -0.18709096 0.31822723 0.029185362
0.19536096 -0.106559224 0.5324434 -0.12693062 0.33938468 0.06440621 -0.09799559 -0.036003146
0.33563316 -0.09193547 0.096447915 -0.0017275781 0.7746151 -0.08800106 -0.24551672 -0.009023872
0.2153085 0.36090818 0.19767396 -0.057781484 -0.077038124 0.17371385 -0.15050115 -0.10673452
0.46219116 0.41479835 -0.49204308 0.047116008 0.46184546 0.023032434 -0.16058765 -0.044647194
-0.011227834 -0.06359616 -0.07959135 0.5779235 -0.14236374 0.28653523 0.04365405 -0.110772915
-0.041263256 -0.04168868 0.28340358 -0.17504562 0.057055246 0.1507937 -0.041418858 -0.017672248
0.10649615 -0.11531735 -0.09804793 -0.046104364 -0.1615558 0.13383377 0.024527645 -0.013350483
-0.08550282 0.008498036 -0.035313733 0.4888641 0.20528701 0.23439895 0.02461158 -0.46336696
0.17931381 0.1833947 -0.04837025 0.11057963 0.28657314 -0.41326973 0.114839315 0.2247702
0.48304552 0.17330584 -0.1327844 0.09354827 0.12874776 0.09070691 -0.1437767 -0.042381324
-0.01624571 0.12705158 -0.078303516 -0.041485347 0.049944963 -0.062801786 -0.014698685 -0.038251363
-0.3620388 -0.41045076 -0.1873504 0.0028413495 -0.42579302 0.09325391 0.5086999 -0.3050393
-0.21639712 0.42877096 0.042352665 -0.14720322 -0.09810926 -0.05165362 0.26293504 -0.10428213

fc3.bias f4 [2]
00000000: 7ae4 163e d3a1 c13a
0.14735594 0.0014772959
