checkpoint_actor.pth (torch, 543553 bytes, 6 tensors)

fc1.weight f4 [400, 33]
000000 45 95 72 3d 3c 2d 11 3a 4a 63 70 bd 81 a7 b4 3a
       0.059224386 0.00055380515 -0.05868844 0.001378283
000010 c3 36 d9 bb 22 8f 1b 3d c1 50 f2 bb 40 33 d6 bc
       -0.0066288426 0.0379783 -0.0073948805 -0.026147485
000020 71 77 51 3d df 44 82 bc 6d 9c 4d bc 36 13 1c be
       0.0511393 -0.01590198 -0.012549502 -0.15241703
000030 93 67 55 bd 92 20 61 bd 72 68 b4 bd 9f 1a f2 3d
       -0.05210073 -0.054962702 -0.08808984 0.11821484
000040 54 89 02 bc 7e 49 be bc 95 3c 18 bd f9 e7 02 bd
       -0.007967312 -0.023228403 -0.03716715 -0.031959508
000050 c4 1f 30 bd 75 88 34 3d b3 4d dc 3c cc fe ef 3c
       -0.042999044 0.044075448 0.026892519 0.029296301
000060 a8 dd 19 3d 88 10 75 3d d9 a8 f5 3c 87 0f 8f bd
       0.037564903 0.05983022 0.02998774 -0.069853835
000070 5e fd a4 bd cd 2e 26 bc d8 3d 62 3d b3 99 0a bc
       -0.080561385 -0.010142994 0.05523476 -0.008459496
000080 f5 54 c0 3e 16 0d a4 3c c7 bb 87 3d ac c0 de 3d
       0.37564817 0.020025771 0.066276126 0.10876593
000090 97 47 9c bd 16 98 d7 3c c1 14 02 3b 18 9e b3 3d
       -0.07630842 0.026317637 0.0019848796 0.08770388
0000a0 2a f6 ac 3d 26 67 e0 3c 92 66 ba 3c 36 84 34 bd
       0.084453896 0.027392935 0.022753987 -0.0440714
0000b0 5b 69 0c be 1e 7a 62 bd 0a 6a c3 bd 06 0c 8e bd
       -0.13712065 -0.05529224 -0.0954171 -0.06935887
0000c0 21 8f 03 bd 94 0b 01 bd b2 3b ef 3c 8e 47 01 3e
       -0.03211892 -0.031505182 0.02920327 0.12624952
0000d0 e9 a8 7f 3d e4 84 c6 bd eb d0 83 3d 66 47 9c 3d
       0.062416945 -0.096933156 0.06436332 0.07630806
0000e0 3f c0 65 bd 91 0c d7 bc 3d 03 12 bd c7 7e 0a bd
       -0.056091543 -0.02625111 -0.03564762 -0.03381231
0000f0 5b ac 04 3d 3a ea 22 bd b3 82 ca bc 87 52 40 bc
       0.032390933 -0.039774157 -0.024720525 -0.011738426
000100 70 29 ef 3c 38 45 90 bc 49 ef 8e bd 97 83 98 3d
       0.029194564 -0.017611131 -0.06979234 0.07446974
000110 57 f5 ce 3c d2 b1 bf bc ac 1d ba bc 2d 07 bb bb
       0.025263472 -0.023400221 -0.022719227 -0.0057076425
000120 19 9a 11 bc 25 5b d3 bc 8c d5 48 3d 91 c9 ea bd
       -0.008886837 -0.025800297 0.04903178 -0.11464227
000130 3f 2d 9d bd 54 d2 a2 bb 36 3e e2 3d 81 e9 05 be
       -0.07674646 -0.0049689207 0.11047022 -0.13077356
000140 c4 82 63 bc 55 29 30 bd ab c9 b1 bc 4e fa 91 bc
       -0.013886157 -0.043008167 -0.021702608 -0.01781955
000150 3d f7 1e 3c d9 d8 14 be 35 49 9c bc 60 f8 84 bd
       0.009702501 -0.14535846 -0.019077877 -0.06492686
000160 6b be 87 bd b5 e2 83 bb 9f 90 27 3d ac 63 8f 3d
       -0.06628116 -0.0040248283 0.040909406 0.07001433
000170 95 f7 94 bc af ec 6d 3d 3e 0e 4a bb 67 c2 1d bd
       -0.018184463 0.058087047 -0.0030831243 -0.038515475
000180 82 46 98 bc 33 8d 47 ba 3a 14 7d be 87 93 0c be
       -0.018588308 -0.0007612288 -0.24714747 -0.13728152
000190 59 cb 17 be 7b c4 86 3d 02 2f 8d bc 1c a4 44 bd
       -0.14823665 0.065804444 -0.01723433 -0.04800807
0001a0 57 34 ce 3c bb 30 c9 3d ac 75 01 be 0e 42 16 3d
       0.025171442 0.09823748 -0.12642545 0.03668409
0001b0 34 1a ba 3d 43 4f 8d bd fb 22 2c bb 7c d6 3a 3c
       0.09087029 -0.068998836 -0.0026265967 0.011403676
0001c0 18 3d 39 3d 39 63 87 3d 5e 10 c0 3b f7 da 32 3d
       0.04522428 0.06610722 0.005861326 0.043665852
0001d0 f0 2c 5b bd 3e 96 9d 3b 8b a2 32 3c 98 4f aa bd
       -0.053509653 0.00480917 0.010903011 -0.083159626
0001e0 9a d4 ed 3d 89 b3 d8 3d 12 47 c2 3c 1d 88 95 3d
       0.11612816 0.105811186 0.02371553 0.07301352
0001f0 b6 e0 65 bc 7a f2 9a 3d 35 41 25 be 44 96 18 bd
       -0.014030626 0.0756578 -0.16138156 -0.03725268
000200 33 8a c2 bc b1 65 de 3d 83 1a 03 3d 8c 79 aa be
       -0.02374754 0.1085924 0.032007705 -0.33295858
000210 d7 e8 d7 3d 9f 7e 5e bd 59 7c 2c 3d 27 87 0c 3d
       0.105424576 -0.054319974 0.042110775 0.03430858
000220 38 28 a5 3c c5 78 b9 bd 11 5a 82 3c 33 6e 12 bd
       0.02016078 -0.09056238 0.015912088 -0.035749625
000230 d7 20 c0 bd 90 03 3b 3d 89 aa 4c bd 12 18 79 bb
       -0.09381264 0.045657694 -0.049967322 -0.0038008732
000240 9a c4 55 bd 41 eb 81 bd 9b f1 bb bd cc d7 0c 3a
       -0.052189447 -0.06343699 -0.09176942 0.00053727324
000250 f9 cb 21 bc 0f e3 f2 3d 75 07 cc b8 ec 01 09 bc
       -0.009875291 0.11859714 -9.728867e-05 -0.008362275
000260 a7 94 41 3d 3d 60 c9 bd 93 41 b1 3d 56 42 9a bd
       0.047260907 -0.09832809 0.086550854 -0.07532184
000270 a2 95 0b 3e bf 0c db bd 51 63 c1 3c 5c f6 97 bc
       0.13631299 -0.106957905 0.023606928 -0.01855009
000280 2b 48 40 3c 90 95 e2 bc 09 5b 14 3d ef a8 32 3d
       0.011735956 -0.027659208 0.03621963 0.04361814
000290 a8 10 35 3e c5 f3 b0 3d 4a 6b f4 bc 66 73 ce 3d
       0.17682135 0.08640245 -0.029836316 0.10080604
0002a0 df 9c b9 3c 74 27 46 3d 02 a8 d0 3c ea a3 d3 3a
       0.02265781 0.04837747 0.025470737 0.0016146873
0002b0 95 56 25 3d d7 27 d9 3d 84 ca d6 3d 0c dc 1e bd
       0.040365774 0.10603302 0.104878455 -0.03878407
0002c0 e2 89 fb bd ec 17 ac 3b 97 2f 95 bd 95 fe 90 bc
       -0.122821584 0.005251875 -0.07284468 -0.01769952
0002d0 08 2d 4c bc 43 31 81 3d d8 c2 0e 3b 32 0c 84 3c
       -0.012461908 0.06308224 0.0021783616 0.016119096
0002e0 47 14 8b 3d 9a 20 4b 3c 08 f4 9e 3c 75 bc 19 3c
       0.06790977 0.01239791 0.019403473 0.009383311
0002f0 01 1c 32 3e 3a 4b 4f 3d da f5 2c bd aa 9b 8a 3d
       0.17393495 0.05060885 -0.04222665 0.06767972
000300 0d b7 b6 3a 05 59 c2 bd 17 3b 11 bd 51 a2 52 3d
       0.0013940051 -0.094896354 -0.035456743 0.05142433
000310 20 7f f3 3c f3 51 cc be 05 bb b7 3d b8 dc 4c 3d
       0.029723704 -0.39906272 0.08971218 0.05001518
000320 a1 40 cf bd 7b 1f c6 bc 25 d5 1a 3d 72 e8 87 bd
       -0.10119749 -0.024184933 0.037800927 -0.06636132
000330 74 88 14 3a 3f 6e 51 bd ca 68 c1 3d a4 6b 43 bd
       0.0005666085 -0.05113053 0.09443815 -0.047710076
000340 83 2a 5b 3d 89 7e c1 bc b5 0a 07 bd 5b 73 3d bd
       0.05350734 -0.023619907 -0.032969195 -0.04625259
000350 f4 71 b5 bc 44 dc 30 3e 73 3d 83 3d 72 4f 71 bd
       -0.022149064 0.17271525 0.06408205 -0.058913656
000360 b6 92 31 bc 37 7d 9e 3d de 09 e5 3b e0 7e 9d 3d
       -0.010838201 0.077387266 0.0069897017 0.07690215
000370 c1 5e 30 bd 3b b2 cb bd 5a 99 74 bd d2 ef 6b 3d
       -0.043059114 -0.09946104 -0.05971656 0.057601757
000380 01 49 d3 bd 21 92 10 3d 68 79 9e bd 67 b8 36 bd
       -0.10316659 0.03529561 -0.07738 -0.044609454
000390 5f e7 b4 bd 5f a1 12 3d 59 16 b6 be 50 ff 8e 3d
       -0.08833193 0.035798427 -0.35563925 0.06982291
0003a0 8e c5 ba bc 54 cf 02 3d 34 ce ec bc fb a6 81 bc
       -0.02279928 0.031936005 -0.028906919 -0.015826693
0003b0 c6 b5 a0 bd 08 33 d2 bb 49 ed df bd 15 08 47 bd
       -0.078471705 -0.006414775 -0.109339304 -0.048591692
0003c0 ab 4b 22 b9 31 aa 97 bc 11 2c 54 bd 8f 40 d6 bc
       -0.00015477712 -0.01851377 -0.051799837 -0.02615383
0003d0 c2 30 ed bd 4f 8a a4 3d c4 11 83 3d 54 8e 01 bd
       -0.115815654 0.08034193 0.06399873 -0.031629875
0003e0 f7 ce be bb 50 6c b8 ba 7c 58 d8 3d ae 67 37 bd
       -0.005823012 -0.0014070366 0.10563752 -0.04477661
0003f0 33 43 42 bc 98 58 95 bc 60 e1 dc bd d6 41 20 bd
       -0.011856842 -0.018230721 -0.10785174 -0.039125286

fc1.bias f4 [400]
000000 88 d0 21 3e 2c 7a ea bd e2 5e 48 be cc a9 ed 3d
       0.15802205 -0.11449084 -0.19567445 0.11604652
000010 aa 37 ba bd a4 8f fe 3d 9d 49 5d bc 93 77 39 3e
       -0.09092648 0.12429741 -0.01350632 0.1811202
000020 f8 18 00 be eb 4f 9b bd 96 a1 0f 3e 0a ce 4c be
       -0.12509525 -0.075836025 0.14026484 -0.20000473
000030 d6 12 e1 3d 10 1f be 3d 07 fb da 3a af bb b5 bd
       0.10989921 0.092832685 0.0016706892 -0.088736884
000040 99 3f c7 bd cd 50 81 bd 41 07 ef bd 7c 93 4c be
       -0.09728927 -0.0631424 -0.116713054 -0.19978136
000050 53 fc e4 bb 3a 6c 11 3e 88 b7 d7 3d eb 8e fe 3d
       -0.006988087 0.14201441 0.10533053 0.12429603
000060 3d 90 16 bd c8 43 1f be 39 2b 0f 3d 88 36 33 3e
       -0.03675865 -0.155532 0.03495333 0.17501271
000070 a8 14 68 bd e6 46 0b 3d 9e cd 64 3d c7 b1 9f 3d
       -0.056660324 0.03400316 0.055860154 0.0779758
000080 16 a8 39 bd 25 b6 2b be 9d 0e 43 bd 30 04 fa bd
       -0.045326315 -0.16768701 -0.04762136 -0.1220783
000090 60 0a d3 3d 12 78 07 3e 07 7e 81 bc d4 7b ff bd
       0.10304713 0.13229397 -0.015807165 -0.1247479
0000a0 4d a7 7d bd 3d 45 e1 bd 04 eb f9 3d 8e 73 8a 3c
       -0.06192713 -0.10999534 0.12203029 0.016900804
0000b0 bf 88 1e 3e da 43 11 be d7 53 6b bd bf b8 4d 3c
       0.15481852 -0.1418604 -0.057453003 0.012556254
0000c0 68 25 05 be 18 b0 2f 3c c4 51 cd bd b2 de 5b 3d
       -0.1300255 0.010723136 -0.10025361 0.053679176
0000d0 0a 72 06 bd 6d 24 dc bd b1 3a 2b be 1d 97 a2 bd
       -0.0328236 -0.10749135 -0.16721608 -0.07938979
0000e0 ab 62 56 3e aa 53 3a be 84 ec 0b be a2 09 8b bd
       0.20936076 -0.18195978 -0.13664442 -0.06788947
0000f0 69 57 43 3e 40 a6 40 3c 16 0a cd bd 3f 03 1f 3e
       0.19076313 0.011758387 -0.10011689 0.15528582
000100 80 43 2f 3e b4 d2 2c 3d 5b 20 2b be 93 de 4d 3d
       0.17115593 0.04219313 -0.16711561 0.05026109
000110 2e a3 f2 3d af b6 0c 3b e9 75 9b bd 5f 2b 5b bc
       0.1184753 0.0021471193 -0.07590849 -0.01337704
000120 ec 0c 2c be 93 6c e7 3d 53 9c 9f bc 95 5f e8 bd
       -0.16801804 0.11300006 -0.01948372 -0.11346356
000130 55 35 20 3e a2 5f bc bd f8 e8 79 3c c6 a5 ac 3d
       0.15645345 -0.09197928 0.015253298 0.08430056
000140 47 30 9e bd cb 7d d8 3d 40 e1 05 be c4 7b 87 3c
       -0.07724052 0.10570868 -0.13074207 0.016538508
000150 79 11 5c 3d 03 2b f2 3d f6 68 24 be 44 15 32 bd
       0.0537276 0.1182461 -0.16055664 -0.04347731
000160 01 20 ac 3d e2 19 9b bc c4 8b a6 3c 4a c4 db 3d
       0.08404542 -0.01893324 0.020330317 0.107307985
000170 db cb 56 3c 8d dd ac 3c a1 93 39 3e 9e 37 75 bb
       0.013110126 0.021101737 0.18122722 -0.0037417184
000180 91 39 fd 3d 0b ed ce bd 73 b4 bf 3c 67 aa 83 3d
       0.123644955 -0.10103806 0.023401475 0.06428986
000190 5a 48 54 3c 6e 07 1a be ca f9 ca bc 78 80 d3 bc
       0.012956703 -0.15041897 -0.024777312 -0.025818095
0001a0 5c 82 25 bd d6 4e 22 be 11 c7 12 be 4d 82 ec bd
       -0.040407524 -0.15850386 -0.1433375 -0.115482904
0001b0 58 b1 48 be 6d f9 40 bd cf 5e 8e 3d 07 13 16 be
       -0.19598901 -0.04711287 0.06951677 -0.14655696
0001c0 8c 7c c4 3d 59 dc 02 3e a2 54 64 bb af 3b 58 3e
       0.09594068 0.12779368 -0.0034840484 0.21116517
0001d0 90 ba 48 bb 71 31 63 be b4 a2 62 bd 48 e3 58 3d
       -0.0030628778 -0.22186829 -0.055330947 0.052951127
0001e0 72 fd d7 3d 80 7e bb bc a4 e9 eb bd 10 eb 24 3e
       0.10546388 -0.022887468 -0.11519173 0.16105294
0001f0 b5 01 c7 3c 32 de 07 be f1 12 bb bc 8d d9 c2 3d
       0.024292806 -0.13268355 -0.02283618 0.09514151
000200 aa a7 ea 3d 2b f9 51 bd f2 a1 57 bb bc 91 c2 3c
       0.11457761 -0.051263016 -0.0032902923 0.023751132
000210 7c 72 2a 3d f7 df 36 3e 8c 27 9c 3d cf 11 1c 3e
       0.041613087 0.17858873 0.076247305 0.15241168
000220 5d b9 20 3e 55 dd b1 3d 99 9a 7a bd b3 91 31 3e
       0.1569571 0.08684794 -0.061182592 0.17340736
000230 40 21 fe bd 0c 58 6e 3c 08 ed 9d 3d a6 30 90 3d
       -0.12408686 0.014547359 0.07711226 0.07040529
000240 16 a8 f6 bd c6 24 c4 3c d2 b1 10 3d d0 fb dd bd
       -0.120437786 0.023943316 0.035325833 -0.10839045
000250 de 0d 9a 3d 5b b6 b6 bc c8 0d b4 3d 9d e1 04 3e
       0.07522176 -0.02230375 0.08791691 0.1297669
000260 8a b8 55 3d 89 90 b9 bd d8 bb b5 3c d6 6f 1b bd
       0.052177943 -0.09060771 0.022184297 -0.037948452
000270 c3 cc 2a 3e bd 55 b9 3d 68 ff b9 3d b1 6e e2 bd
       0.16679673 0.090495564 0.09081918 -0.11056269
000280 8b a0 44 be b8 1e c5 bd 8a f8 31 3e 8d 85 1d 3e
       -0.19201867 -0.09625 0.17379966 0.15382977
000290 76 34 89 3d 71 32 f7 bd 0c 49 07 3c c9 bf 5a b9
       0.06699459 -0.12070168 0.008257162 -0.00020861546
0002a0 ca cc 1c bd c3 67 81 3e b1 86 00 be 23 85 23 bd
       -0.03828124 0.25274476 -0.1255138 -0.03992189
0002b0 1c 75 28 3e 8d 4e a5 3d 94 3f e1 bd 78 49 1c 3e
       0.16450924 0.08071623 -0.10998455 0.15262401
0002c0 7b 1a 8a bd c0 3f b1 bd 88 9c aa 3c fd 37 8f bd
       -0.06743332 -0.086547375 0.020826593 -0.06993101
0002d0 dd 8a bd bd 6d 9c 3d 3e ea ff 09 be 70 cb 78 bd
       -0.09255002 0.18516703 -0.1347653 -0.060740888
0002e0 30 29 0a 3e 0b fb 9f 3d cf 59 5f bd 2f e7 90 bc
       0.13492274 0.078115545 -0.054529008 -0.017688362
0002f0 7a 1e cd bc 7f be ce bd c9 de 8b 3b 32 89 44 bd
       -0.025038946 -0.10094928 0.0042685014 -0.047982402
000300 29 ad 32 bc 6d 88 70 3d 3c 56 da bd 2b 6b 7c bb
       -0.010905542 0.058723856 -0.10660979 -0.0038516026
000310 c3 3c e0 3d be 8c 2a 3e 8d f4 26 3e d1 ac 2e 3e
       0.109490894 0.16655251 0.16304226 0.17058112
000320 60 22 d1 bd c4 9b 1a 3e 96 73 4c be e2 a3 5c 3e
       -0.10211635 0.15098482 -0.19965968 0.21546891
000330 93 1a e6 3d e5 7d 56 3d cc 5a 61 3b c3 4f 44 3d
       0.112355374 0.052366156 0.0034386395 0.04792763
000340 bc bf 07 be 29 c9 89 bd 26 93 be bc 89 30 e4 3d
       -0.13256735 -0.067278214 -0.023263525 0.1114207
000350 48 b8 fc bd 47 af ab 3a 5e 53 fa 3a 93 e1 1d be
       -0.12339836 0.0013098501 0.0019098332 -0.15418081
000360 84 de e1 bd d4 59 e1 bb 79 7e ff bd 15 c9 fb bb
       -0.110287696 -0.0068771634 -0.124752946 -0.007683883
000370 ac 49 04 be 05 11 5e bd c6 57 cd bd d7 18 a2 3d
       -0.12918729 -0.05421545 -0.10026507 0.07914894
000380 97 0f e7 bc 28 15 1b be 83 c4 c5 bd d5 a8 a1 bd
       -0.028205676 -0.15144789 -0.09656622 -0.0789353
000390 ba a6 e1 3d b2 9f bf 3d 90 18 ba bb 5c 1b 99 3d
       0.11018129 0.09356631 -0.0056791976 0.074759215
0003a0 e7 bc 24 be 46 a8 45 bd 19 6e 08 3e e5 e7 5a 3d
       -0.16087686 -0.04825618 0.13323249 0.053443808
0003b0 59 12 3a bd 9f 66 33 3e 66 74 28 3d 45 ea d6 bd
       -0.045427654 0.17519616 0.04112663 -0.10493902
0003c0 fb 23 8e 3d b7 6e 14 be 0a c0 b2 3d 75 50 32 3e
       0.069404565 -0.1449536 0.08728035 0.17413504
0003d0 c2 bc ff bc b8 13 93 3d 1a ad 45 be fc 00 06 be
       -0.031217936 0.071814954 -0.19304314 -0.13086313
0003e0 96 ee 22 3c d9 ac 30 be 57 14 0e bd 47 15 b9 bd
       0.009944579 -0.17253436 -0.034687366 -0.090372615
0003f0 31 b4 89 bd 8c e3 56 3d e6 de 49 3b 32 46 9f 3c
       -0.06723822 0.0524631 0.0030803024 0.019442651

fc2.weight f4 [300, 400]
000000 ac 3b d9 bc 34 d9 e1 3c ae 67 ad bc b5 79 f9 3d
       -0.026517712 0.02756939 -0.021167602 0.12181417
000010 92 85 d0 bd 4c 45 b7 bc 4c 07 2a bd 3c 7e 04 be
       -0.101817265 -0.02237191 -0.041510865 -0.1293878
000020 f1 b1 b7 bc 87 00 f0 bc a8 e4 01 3d 3e 48 07 3d
       -0.022423716 -0.029297126 0.031712204 0.03302788
000030 d0 d8 d6 3b 4a 8f 47 3d 03 d4 9d bd 2f b4 13 be
       0.006556608 0.048720635 -0.07706454 -0.14424203
000040 40 9d ab 3d 61 f3 c2 3a 2c cd 56 3d 82 38 57 bd
       0.083796024 0.0014873558 0.05244176 -0.052544124
000050 dc 8e 23 be 33 36 2f be 36 fa 1b be 68 80 b7 3d
       -0.15972465 -0.17110519 -0.15232167 0.089600384
000060 06 7a 5f 3b 42 64 2e bd 50 b5 20 3d 92 1f 17 bb
       0.0034099831 -0.042576082 0.039235413 -0.002305959
000070 59 60 68 3d 59 d2 13 bd 96 fa 81 bc a2 37 69 3d
       0.05673251 -0.036089275 -0.015866559 0.05693782
000080 f9 1d f3 bd 4f d5 18 3d f0 4c 9f 3d e1 27 00 3d
       -0.11870951 0.037312802 0.077783465 0.03128803
000090 4e f9 14 bd 4a 22 01 be a4 fa 12 3e 57 77 c6 3d
       -0.036370568 -0.12610736 0.14353424 0.09690731
0000a0 b7 9f 5b 3d 0d f3 a1 bd b7 1b c2 bc a3 67 83 3d
       0.053619113 -0.079076864 -0.023694856 0.064162515
0000b0 f1 f8 02 3d f5 4d cf 3c d6 1f 37 3d 64 17 0e be
       0.03197569 0.025305727 0.044708095 -0.1387611
0000c0 44 a4 45 3d fd a5 5c bd a3 32 ac bc 61 05 9f 3d
       0.04825236 -0.053869236 -0.02102024 0.07764698
0000d0 29 14 27 be 3b 5f d3 3d 30 d3 b1 bc f7 56 08 be
       -0.16316284 0.10320898 -0.021707147 -0.13314424
0000e0 16 0e 01 3d 88 88 1b bc 48 47 1d bc 39 2a b4 3d
       0.031507574 -0.009493001 -0.009599514 0.08797116
0000f0 8a 43 32 bd 08 26 68 be d5 d6 e6 3b 91 93 81 3d
       -0.04352144 -0.22670758 0.007044653 0.06326974
000100 d0 59 d3 3a fb a2 4d bd 46 83 b9 3d 9d b1 cc bc
       0.0016124789 -0.05020426 0.090582415 -0.024987036
000110 da 2e 3f bd af f8 27 be 5e d7 66 3d df db 1a be
       -0.04667554 -0.16403459 0.056357734 -0.15122937
000120 d3 7d bd 3d 0f 7f 49 3d c8 e3 73 3d b7 d8 13 bd
       0.09252515 0.04919344 0.0595434 -0.036095347
000130 59 e9 b1 bc 7f c1 03 3d df cd b3 3d 61 3a ce 3c
       -0.021717714 0.032166954 0.08779501 0.025174322
000140 0c f5 11 3e c1 03 84 bd ad 7f a6 3d 1f 9c 38 3d
       0.14253634 -0.064460285 0.08129821 0.045070764
000150 8d c8 46 3d 5c b6 d1 3a ae 4a d9 3a 4d fa 90 3d
       0.048531104 0.0015999782 0.0016578042 0.07078991
000160 fd 39 dc 3d 25 ba 45 3e 4e 4b 2d be 25 9f 24 3e
       0.10753248 0.1930929 -0.16923258 0.16076334
000170 97 63 62 3d ca 03 ef bd 1b bf a3 bd d1 34 cf 3c
       0.055270758 -0.116706446 -0.07995435 0.02529374
000180 85 e3 09 bd 97 37 32 be f1 b7 34 3e 41 88 64 bc
       -0.033664245 -0.17404018 0.17648293 -0.013948501
000190 03 da 53 3d 89 65 15 3d 12 8d d3 bc 59 e0 b5 3d
       0.051721584 0.036473785 -0.025824104 0.088806815
0001a0 3c b3 0c be bc 60 25 3a 7b 92 62 3d 7f 55 99 be
       -0.13740247 0.0006308665 0.055315476 -0.2994804
0001b0 77 6c 87 bd e7 50 cc bd 8c f3 88 3d 19 ed bb bd
       -0.06612485 -0.099763684 0.06687078 -0.09176082
0001c0 5b 64 42 bb 20 af 11 3e af 6e 4b 3e 10 60 17 be
       -0.0029661867 0.14226961 0.19866441 -0.14782739
0001d0 d3 d6 99 bd de f7 4a ba 33 46 27 bd 44 0a 89 3d
       -0.075116776 -0.00077426236 -0.04083843 0.06691411
0001e0 f9 59 a0 3c 4d d4 9f bd 22 8a 21 3d 11 70 eb 3d
       0.019574152 -0.07804165 0.039438374 0.11495984
0001f0 ba f3 23 be b9 4a 64 be c1 fc b6 bb 86 de 00 3d
       -0.16010943 -0.2229413 -0.00558433 0.031462215
000200 2c 65 9d 3d d5 b7 4b 3d 8e 80 07 bc 04 d9 e7 3d
       0.07685313 0.049735863 -0.008270396 0.11320689
000210 d7 07 df bb b0 02 b1 3d 52 ae 07 3c 0b ce d6 bd
       -0.0068063545 0.08643091 0.008281307 -0.10488518
000220 13 b3 ec 3d f9 ba 01 bd 7e 15 24 be 18 ef ef bd
       0.11557593 -0.03167245 -0.16023824 -0.117155254
000230 e3 ad cc 3c 63 14 9a 3d f3 d7 ef bd 6a 5e 89 3d
       0.02498526 0.0752342 -0.11711111 0.06707461
000240 45 0a ff 3d a4 b2 24 3d 43 00 75 bd 74 86 33 bd
       0.12453131 0.040209427 -0.059814703 -0.043829396
000250 d8 a5 f4 3d 41 8e 79 3c 73 b8 61 bd 78 1e 2e bd
       0.11945695 0.01523167 -0.055107545 -0.042509526
000260 21 30 9c 3d f0 89 f8 3c 28 f7 04 3c 3d 52 90 bd
       0.07626367 0.030339211 0.008115567 -0.07046936
000270 d7 72 c6 3d fe e7 06 be 71 4e 0e be b6 3e b9 3c
       0.09689873 -0.13174435 -0.1389711 0.02261291
000280 6f 57 05 bd ac 52 86 bd 5e cf 6e 3d 19 ad b6 3d
       -0.032554086 -0.06558737 0.05830323 0.089197345
000290 c4 a2 b7 3c 98 ab c9 bd 9f 13 13 3d 58 ed 62 bd
       0.02241648 -0.09847182 0.035907384 -0.05540213
0002a0 71 d6 0f 3e c5 f2 32 bd 93 05 3b bd 53 e5 00 3c
       0.14046647 -0.043688554 -0.045659613 0.007867175
0002b0 17 73 35 be 38 a6 17 3d 59 55 b2 3c 32 b3 03 bd
       -0.17719685 0.037023753 0.021769213 -0.032153316
0002c0 87 fb 0a 3d b8 35 4c 3d 76 16 ae 3c c0 de 4b be
       0.03393128 0.049855918 0.021250945 -0.19909191
0002d0 7b e4 13 bc 0c 0e e5 3d 22 bd 90 bd e3 e3 1d bd
       -0.009026642 0.1118432 -0.07067324 -0.038547408
0002e0 92 7b 42 bd 2e a7 1c be c0 c8 22 3c db 04 c4 be
       -0.047481127 -0.15298149 0.009935558 -0.38284954
0002f0 aa 28 45 bc 3f d0 74 bd 62 11 aa bc 48 42 61 3d
       -0.012033621 -0.05976891 -0.020760242 0.05499485
000300 b0 10 5d bd 75 62 5b 3d 08 a0 cd 3d 22 94 fd bc
       -0.053970993 0.053560693 0.10040289 -0.030954424
000310 4d 7f b0 3d 7c bc ed bd 19 c0 d8 bd 38 bd 31 bc
       0.08618031 -0.11608216 -0.10583515 -0.010848336
000320 58 c3 94 3d f5 d9 80 3c 85 0b 3d 3e 4f 25 be 3c
       0.07263821 0.01572893 0.18461426 0.02321115
000330 9d 2e 80 3d 9b e3 9c bd a9 6c 2a be 66 bc 81 be
       0.06258891 -0.076606 -0.16643013 -0.2533905
000340 86 b2 8c 3b c5 4d d7 3c 19 7a c2 b9 c7 48 23 3e
       0.0042937426 0.0262822 -0.00037093533 0.15945731
000350 2d 3b 7d bd 5c 89 05 3e c7 2f d9 3d 8f b5 64 ba
       -0.061824013 0.1304068 0.10604816 -0.0008724564
000360 d0 e5 63 bd 7d 65 bf 3d 21 c1 19 bd 00 fb 73 bb
       -0.05563909 0.09345529 -0.037537698 -0.0037228465
000370 1a bc 98 bd d8 fc 2f be 58 0c 44 3c 14 f8 dd bd
       -0.074577525 -0.17186296 0.011965834 -0.10838333
000380 b2 6d 51 3c f2 40 fd bd 7f 01 14 bb 7b 36 f0 bd
       0.012782501 -0.12365903 -0.00225839 -0.11729141
000390 3f 4f 9a 3d c1 da fe ba aa d6 7e 3c 10 8c 4f 3e
       0.07534646 -0.0019443856 0.01555411 0.20268273
0003a0 62 11 d9 bd 8d 24 62 bd 5f cf dd 3d e0 ed f8 3d
       -0.10599019 -0.05521064 0.108305685 0.12154746
0003b0 47 71 77 3d 8b 4b 30 3e 92 39 e3 3d aa 7b 64 bb
       0.060410764 0.17216317 0.11094965 -0.0034863749
0003c0 e5 74 db bd eb 60 86 3d 48 1e 93 3d d3 03 80 bd
       -0.10715655 0.065614544 0.0718351 -0.062507294
0003d0 fc 8a 2b 3d 9d 5e f2 bb 02 27 bb 3d f2 c5 7c bd
       0.041880593 -0.0073965327 0.091382995 -0.061712213
0003e0 20 6a cd bd 53 aa a3 3a 47 c1 fe bc 10 41 bc 3c
       -0.10030007 0.0012486674 -0.031098021 0.022980243
0003f0 3d 0f 02 3b 3c a6 86 bd aa f5 04 bd fa 7f ad bd
       0.0019845509 -0.065746754 -0.032460846 -0.08471675

fc2.bias f4 [300]
000000 f3 26 7a 3d 6f 39 f5 bb 3c 7b ba bc 79 06 22 bb
       0.0610723 -0.0074836533 -0.02276384 -0.0024723096
000010 06 06 2a bd 88 fe f1 bc 0f b5 d7 bb 38 58 b3 3d
       -0.04150965 -0.029540315 -0.006582863 0.08757061
000020 ed fc d1 bc 71 22 26 bd a6 e2 87 3c 6c d9 b4 3b
       -0.0256333 -0.04056019 0.016587567 0.005519083
000030 5b 6d 27 bd 8b 45 76 3c 7c 5a 05 be 88 ea 1c 3d
       -0.040875774 0.015031229 -0.13022798 0.038309604
000040 5b 9b 8c bd 85 ba 4a bd 01 7c b2 bc d7 31 83 3c
       -0.06865569 -0.049494285 -0.021787645 0.016014976
000050 71 ee c9 bc 83 75 3f bd 48 78 80 bc 23 ac f7 3b
       -0.02464983 -0.046742927 -0.015682355 0.007558362
000060 27 b5 03 3c 6d 77 e5 3c 13 70 33 bd 61 a3 d3 bc
       0.008038796 0.028011048 -0.043808054 -0.025834741
000070 5d 8e 14 bd 10 f6 e5 bc 7e 92 2e bd 53 50 ef 3c
       -0.03626858 -0.028071433 -0.042620175 0.029213106
000080 c7 a1 9e 3c 0e 01 b9 3c c1 95 26 bd 39 30 90 bb
       0.01936425 0.02258351 -0.04067016 -0.00440028
000090 9c 95 7f bd 30 fc 10 bd e7 d6 8b bc dc d9 3c bd
       -0.062398538 -0.035396755 -0.017070247 -0.046106204
0000a0 45 18 5e 3a 13 da a9 3c 5f 9c 15 3d 9e c8 66 bd
       0.00084722444 0.020733869 0.03652608 -0.056343667
0000b0 9d ef b8 3c 40 a4 b3 3c c6 7d 57 3b 4a ad 75 3d
       0.022575194 0.021928906 0.0032881363 0.059979714
0000c0 1a f0 01 bd dc be 87 bd 79 43 3d bd 30 45 4f 3c
       -0.03172312 -0.066282004 -0.046206925 0.012650773
0000d0 eb fb ad bb 03 0e d0 3c 6d 98 ea 3b bf da 84 bd
       -0.005309572 0.025397306 0.007159284 -0.06487035
0000e0 28 5b 97 bd ff 33 11 3b 8f fe 2a bd d8 05 69 bd
       -0.073904335 0.0022156236 -0.041746672 -0.05689034
0000f0 41 16 9f bd 98 07 f7 bc cb e9 af 3c c4 8b 13 bd
       -0.077679165 -0.030154988 0.021473786 -0.036021963
000100 f6 0b 8b bd 64 26 24 bd c6 b3 25 bd 30 05 ae bb
       -0.06789391 -0.040075675 -0.04045465 -0.005310677
000110 13 af 76 3c b5 7c 7e 3c 9c 51 d4 bc 80 9c 71 bd
       0.015056389 0.015532662 -0.02591782 -0.05898714
000120 56 9e 6b bd 80 11 8b bd 60 a1 53 bd e7 02 06 bd
       -0.057524048 -0.06790447 -0.05166757 -0.03271761
000130 f2 e2 b9 3b 16 a9 2d 3d 20 51 09 3d 3a fa 9b bc
       0.005672806 0.04239758 0.033524632 -0.019040216
000140 b0 e8 9d 3d 11 ac 45 bd 6f 64 6e 3c 3c c1 b8 3a
       0.07710397 -0.0482598 0.014550312 0.0014095674
000150 33 36 61 bc a1 e8 58 bc 97 9c 07 bd b5 c4 eb bc
       -0.013745832 -0.013239057 -0.03310832 -0.02878032
000160 ce 6a 66 bd 3e ac 2e bc 08 ba 76 3d f2 ad 6e bd
       -0.0562542 -0.010661183 0.060236007 -0.058271356
000170 4d a6 9e bd 03 a5 95 bd a1 88 90 bd 93 49 fc bc
       -0.07746563 -0.07306864 -0.0705731 -0.030796802
000180 5f 5e 82 bc 8d e9 a1 bc 1c 26 e9 bc 08 cb 09 3d
       -0.01591414 -0.019764686 -0.028460555 0.03364089
000190 2c 88 8a 3d 0e 26 6f bd 75 e3 7e bc e9 74 e5 bc
       0.06764254 -0.0583859 -0.01555716 -0.028009849
0001a0 b0 62 60 3b 5e 57 70 bd a7 6c be bc 63 d2 19 bd
       0.003423851 -0.05867707 -0.023245169 -0.037554156
0001b0 f0 ab 1f 3b 70 b9 2f 3d f0 f2 44 3d b2 9c 5d 3c
       0.0024363957 0.042901456 0.048083246 0.013526129
0001c0 ba 9b 8a b9 d0 77 82 3c 0a 87 8f 3c 51 ae 05 3d
       -0.00026437436 0.015926272 0.017520446 0.032636944
0001d0 8c 7f aa bc 03 27 55 bd a2 e7 e4 bc 73 03 f3 bc
       -0.020812772 -0.052039158 -0.027942482 -0.02966473
0001e0 2f 4d 22 bd bd 6c 20 3d ff 71 51 3d dd 71 09 3d
       -0.03962439 0.0391662 0.051134106 0.033555854
0001f0 3e e2 24 3d 42 1b d6 3b 77 a9 d1 bc 70 99 f3 bc
       0.040254824 0.006534011 -0.025593502 -0.02973625
000200 43 18 c8 bc 03 ea 90 3c e9 f0 cb bc e1 8e 12 bd
       -0.024425631 0.01768971 -0.024895148 -0.03578079
000210 d1 13 33 bd 24 6f 22 bd 0f ee 86 3c 2a a6 62 bc
       -0.04372007 -0.039656773 0.016470937 -0.013833562
000220 2e 1d 70 bd af 23 40 3c 0a b2 73 bd ed de 4d bd
       -0.058621578 0.011727258 -0.059495963 -0.050261427
000230 d5 4f 8e bc 38 d2 26 bd 52 99 4b bd cb 47 eb bc
       -0.017372051 -0.040727824 -0.049706765 -0.028720757
000240 76 ee 27 bd c9 60 4f bc 65 fe bd 3b 68 d4 12 bd
       -0.0409989 -0.012657353 0.0057981485 -0.035847098
000250 65 e8 d4 bb b3 97 16 3c e4 a5 4c 3c 6f 84 8f bc
       -0.00649743 0.009191441 0.012490723 -0.017519204
000260 ef 4e 8f bd 76 d0 b5 bc b1 ee 3e bd f4 2a 52 bd
       -0.06997477 -0.022194128 -0.046614353 -0.051310495
000270 49 2c 84 bd 63 33 cf 3d a4 be e8 3c c8 ff 12 3d
       -0.06453759 0.10117223 0.028411217 0.035888463
000280 f2 66 75 bd 54 b5 12 bd 97 ca f7 3c 0e 66 33 3c
       -0.05991263 -0.03581746 0.03024797 0.010949625
000290 f1 da e3 bb d4 2f 3d 3d a4 85 0f bd 86 da 15 bc
       -0.00695359 0.04618819 -0.03503956 -0.009146338
0002a0 44 7c 36 3d c0 32 09 bd 41 3b f7 bc 92 2d 6f 3d
       0.044552103 -0.033495665 -0.030179622 0.05839307
0002b0 98 9e 81 bc 21 d7 a2 3c ae 64 94 bc b8 bf f3 3c
       -0.015822694 0.019877972 -0.018114414 0.029754505
0002c0 ea 5d 72 3d 96 19 44 bb 5d ea 8c bb d2 20 5a 3c
       0.059171595 -0.0029922477 -0.004300399 0.013313489
0002d0 23 d0 07 bd 06 c0 d9 bc 02 51 26 bc 0b 5f e5 3c
       -0.03315748 -0.026580822 -0.01015115 0.027999422
0002e0 cd 1e 21 bd d7 af 89 3c 8d 6c 3e 3c 00 89 13 3c
       -0.039336015 0.01680748 0.01162256 0.009004831
0002f0 09 22 64 bd 1d 9f 02 3d 7e 19 08 3d 95 64 07 3d
       -0.05569652 0.031890023 0.033227436 0.033054907
000300 85 18 a0 bc 82 9f 7f bd c9 d3 05 3d 2b 40 1e bc
       -0.019542942 -0.062407978 0.032672677 -0.0096588535
000310 65 2d 90 bc 30 85 73 bd ab 6b d5 bc e0 0d e5 3c
       -0.01759977 -0.05945319 -0.026052317 0.027960718
000320 6b 65 ce bc ad f9 7f 3c 30 fe a4 bc 0f f5 f8 3c
       -0.025194844 0.015623492 -0.020140737 0.03039029
000330 97 e0 46 bc 45 48 de 3b ce 97 7b 3b b7 ef a1 3c
       -0.012138507 0.0067835175 0.0038390043 0.019767625
000340 d4 85 9a bd 9d 50 43 bd af 6f fd 3c 6e 7b bc bb
       -0.07545057 -0.0476843 0.030937044 -0.0057520187
000350 b0 0f 8b bc b4 6a 05 3d 42 c6 b6 bd 0f 03 e2 3c
       -0.016975254 0.032572463 -0.089245334 0.02758935
000360 0b b4 50 bd ec 80 7d bd 72 04 ab 3c b6 6f 2d 3d
       -0.050952952 -0.061890528 0.020876143 0.042342864
000370 78 4c 96 bd 99 cc d0 3c f8 2e 9d 3d 5c 05 ef bc
       -0.07338804 0.025488185 0.07674974 -0.02917736
000380 12 79 95 bc 8a f1 d8 bc ca 25 18 3d 28 e8 76 3d
       -0.018246207 -0.026482362 0.037145413 0.060279995
000390 64 4e 5b 3d c4 d1 bf bc 62 f4 1d 3d e0 27 b3 3c
       0.053541556 -0.023415454 0.03856314 0.0218696
0003a0 4b 14 b8 bc d3 86 9b bd d6 ce e3 bc 9b 7d 82 bc
       -0.022470614 -0.07594075 -0.027808588 -0.015929034
0003b0 db 75 40 bd 08 bc 94 3c e8 98 9b 3a 58 ce 86 bd
       -0.046987396 0.018156067 0.0011871131 -0.06582326
0003c0 fc ce 0f bd 18 37 6e bd 4e 7d 68 3d 0c cf 48 bc
       -0.035109505 -0.05815801 0.056760125 -0.012256395
0003d0 de fc a7 bd 1c 3a 1f bd 2e 05 63 bc 73 a0 02 3d
       -0.082025275 -0.038873777 -0.013856215 0.031891298
0003e0 fe b4 a6 38 c1 7b 5a 3c 05 58 3a 3b e0 31 28 3d
       7.949209e-05 0.013335169 0.0028433811 0.04106319
0003f0 7d db 1e 3d b4 ce 1f bc f1 c2 d8 bc cd fb 2b 3d
       0.03878354 -0.009753872 -0.026460143 0.041988183

fc3.weight f4 [4, 300]
000000 28 ba 31 be 37 75 47 bd 52 86 06 bd 78 2b ef bd
       -0.17356169 -0.04869577 -0.03284294 -0.11678213
000010 89 23 27 be 85 78 2d 3e 3f 05 1a be 8c 90 f0 3d
       -0.1632215 0.16940506 -0.15041064 0.1174632
000020 39 76 09 ba 9d 57 94 bc 01 20 a0 3c 14 b6 1b 3e
       -0.0005243752 -0.018108184 0.01954651 0.15206176
000030 e6 7b f2 be 81 a1 0e 3d d3 d5 8d 3d 07 36 d8 bd
       -0.47360152 0.03482199 0.06925549 -0.1055718
000040 63 37 ad be f1 7b 4c be c6 b3 a8 3e c8 7d 40 3e
       -0.3383132 -0.19969155 0.32949656 0.18797982
000050 b4 43 ee bd 42 af e6 be 6c a7 07 3f 69 7f 8b be
       -0.11634007 -0.45055586 0.5298984 -0.27245644
000060 57 30 04 bd 7b cb a1 3c 85 23 02 bd 05 70 ef bc
       -0.032272663 0.019750347 -0.031772155 -0.02922822
000070 b1 06 86 3c 87 b0 b5 3c 47 41 e8 be c0 aa 92 bd
       0.016360613 0.022178901 -0.45362303 -0.07161474
000080 19 b6 80 bd 8a d3 2e be 72 58 04 3e f5 74 23 3d
       -0.06284732 -0.17072883 0.12924364 0.03990646
000090 4d db 23 3a ce ca 9c be c1 93 e4 3e e8 39 1f 3e
       0.0006250635 -0.30623478 0.44643977 0.15549433
0000a0 f3 7b 26 3e 5c 9d 64 be fb 61 d0 bb c0 5c ce bd
       0.1625822 -0.22325653 -0.0063593364 -0.100762844
0000b0 96 f2 1b 3d b7 20 76 3d 1a e0 1f 3e ac 37 b6 3c
       0.038073145 0.060089793 0.15612832 0.022243343
0000c0 c4 19 01 bc f2 c3 84 be e0 c6 12 bd d1 3d fa be
       -0.007879678 -0.25930744 -0.035834193 -0.48875287
0000d0 69 76 9a bd 54 59 83 3b 64 83 d7 bd a8 f3 38 3d
       -0.07542116 0.0040084515 -0.10523108 0.045154244
0000e0 d6 2d a5 3e bd 6e 49 3d 81 3e a9 bd 9a ab fd bd
       0.32261533 0.049177874 -0.08263875 -0.12386246
0000f0 b7 a7 25 3e 9e dd 53 3d ac fc 22 be 61 ee c6 bd
       0.1617726 0.051725022 -0.15916699 -0.09713436
000100 0e 55 30 3e e7 57 89 be a0 c8 13 3e 8f 0c e6 3d
       0.17219946 -0.26824877 0.14432001 0.11232864
000110 e3 a3 9e 3c 69 ba 71 3e 0c 6e 84 bc 83 a9 10 be
       0.019365257 0.23606266 -0.016165756 -0.14127164
000120 55 8d 3f 3e df fe 41 bd d2 8e d4 be 35 18 05 3e
       0.18706258 -0.047362205 -0.41515213 0.12997515
000130 72 79 a6 be 04 6e 25 be 7b ec ce bc cf 5c ae 3c
       -0.3251453 -0.16155249 -0.025259247 0.021284489
000140 a5 23 23 3d e1 43 92 3e 0a ef 1a be 7f e6 40 3d
       0.039828915 0.28567412 -0.15130249 0.04709482
000150 b1 fe 14 3e 37 ef 3d 3d 05 26 db bc ca 7d 53 be
       0.14550282 0.04637071 -0.026751528 -0.20653453
000160 a6 88 17 be 1e f4 5d 3e 0e 29 ae 3d 6f ae 6b bd
       -0.14798221 0.21675155 0.08503924 -0.0575394
000170 cf ab ff 3e db 6e 8e be 8f 68 83 3d ee bc e4 3d
       0.49935767 -0.2781895 0.06416427 0.11168848
000180 26 78 94 be 8d 6c 73 3d ae 96 ec bd b1 68 2c be
       -0.28997916 0.059429694 -0.11552177 -0.16836812
000190 5b e6 1c 3e 98 cd 78 be 10 a9 c4 3d 6b 30 42 3e
       0.15322249 -0.24297178 0.096025586 0.18963782
0001a0 bd 8f 6b 3d 2b a2 cc bb 3b e2 9c be 6d 66 20 be
       0.057510126 -0.006244918 -0.3064135 -0.15664072
0001b0 3a 5d 7a bc 81 40 02 3d fb f2 36 bd d5 ac a1 3d
       -0.015281016 0.031799797 -0.044665318 0.07894293
0001c0 8b f9 b8 3e 6b 50 a8 3b 5d fa 3e 3d b7 0c 8f bd
       0.36127886 0.0051365397 0.046625484 -0.06984847
0001d0 16 a6 e4 3d 9c 11 08 be f5 28 48 bc 81 c3 66 3e
       0.11164491 -0.13287967 -0.012216796 0.22535516
0001e0 6c dd 7e 3d 80 ed 99 3c 34 3f ba 39 bd c3 6a 3d
       0.062222883 0.018790007 0.00035523775 0.057315577
0001f0 6a d6 df 3c 3c 22 f7 bc c9 b2 00 bd a1 6e 38 3d
       0.02732392 -0.030167691 -0.031420503 0.04502738
000200 01 8f b6 3c 78 a8 a6 bd c1 23 3b bd a8 29 32 3e
       0.022284986 -0.081376016 -0.045688394 0.17398703
000210 e5 05 ed bd ba d8 a4 bd 6f c5 ac 3d f1 2d ef bd
       -0.1157339 -0.0804915 0.08436095 -0.116786845
000220 60 7f 4c bd 35 c1 62 bd 14 e9 5a bd a6 89 dc 3d
       -0.04992616 -0.055360038 -0.053444937 0.10768442
000230 0f 73 0b bd 2c ae b8 3e 4d 43 84 3c e5 b1 2a be
       -0.034045275 0.36070383 0.016145373 -0.16669424
000240 d7 46 5b be 0e 46 02 be 10 91 8b 3c d1 5c 82 be
       -0.21413742 -0.12722036 0.017036945 -0.25461438
000250 1e b7 77 3e 09 d7 bb 3d b0 3b 20 3e c7 cc 05 3d
       0.24190947 0.09171874 0.15647769 0.032665994
000260 9b aa ce bd 24 60 05 bd d5 0f 55 be b1 3f 4b 3e
       -0.10091134 -0.03256239 -0.2080682 0.19848515
000270 41 0f 18 3e 32 0e 73 bc 42 99 4f bd 0d a3 0a 3e
       0.14849569 -0.014834927 -0.050683267 0.13538761
000280 3e 97 dc bd 3e 1b 7a 3d 2c 90 fc bd 82 7d bf 3e
       -0.10771035 0.061061136 -0.12332186 0.37400442
000290 5b fe 61 be e8 29 e0 bd 99 8d a5 3c 59 ef 18 3e
       -0.22069685 -0.10945493 0.02020912 0.14935054
0002a0 2f 54 af 3b 54 9e 04 3e 0e b3 8b 3d 09 7e cb bd
       0.0053506116 0.12951022 0.06821261 -0.09936149
0002b0 eb 4f 83 be 13 8a 90 3c eb c6 0b bc 6c f0 c7 bd
       -0.2564691 0.017643964 -0.008531312 -0.09762654
0002c0 76 c5 33 be 36 cb c7 3e e4 ab a4 3e 44 9e f5 bd
       -0.17555794 0.39022225 0.32162392 -0.119930774
0002d0 80 53 b9 3e 09 63 ba 3d 92 e9 01 3e 02 3b 57 3b
       0.36196518 0.09100921 0.12686756 0.0032841568
0002e0 0f 40 de 3d 43 74 d9 3d 05 f1 99 bb b2 c6 a2 bd
       0.10852062 0.10617878 -0.004697921 -0.079480544
0002f0 0a c1 5c 3e 1c cd 7f bd 6e 05 9e bd 05 4e 8e bd
       0.21558014 -0.062451467 -0.077158794 -0.06948475
000300 4c c9 00 be 5e 89 17 3c 7a 4d e5 3d 08 de 18 3e
       -0.12576789 0.0092490595 0.11196418 0.14928448
000310 84 68 04 3d c3 69 ab 3d bd 29 9d be 9b 0e b1 3c
       0.032326236 0.08369782 -0.30695906 0.02161341
000320 b5 e4 e8 be 38 b3 7d 3d 3e 35 bb 3d 7d 91 54 bd
       -0.4548699 0.061938494 0.091410145 -0.05189656
000330 f9 44 4b 3d 60 07 9c bc a4 03 95 3d 5e f6 43 be
       0.049626324 -0.019046485 0.07276085 -0.1913695
000340 b8 b6 10 bd d9 cc bb 3d eb bf 6c 3e 5a d5 84 3d
       -0.035330504 0.09169931 0.23120086 0.06486006
000350 cb 55 23 3d 00 93 20 3e 44 ec 28 3e 66 46 82 3d
       0.03987674 0.15681076 0.16496378 0.06361084
000360 80 d2 8e be 48 0c f8 3d d0 f6 9e bd 0e 76 2f be
       -0.27894974 0.121117175 -0.077619195 -0.17134878
000370 e8 bd 9b bd 10 ef 86 be 69 4a 60 bd b7 59 f5 3c
       -0.07604581 -0.26354265 -0.054758463 0.029950006
000380 51 b1 32 bd 90 2e eb 3c d2 4d 97 bc 63 6d 80 bd
       -0.043626133 0.028708726 -0.018469725 -0.06270864
000390 51 de 37 3d 89 ba 66 bd e1 b8 07 3e de e7 aa bd
       0.04488975 -0.056330238 0.1325412 -0.083450064
0003a0 76 45 4d 3e 11 7d c7 3d 47 33 f2 3c 0f 5b 08 bf
       0.20046028 0.097406514 0.029565467 -0.53263944
0003b0 68 81 73 bc dc 33 2a 3d 22 78 23 3d b8 a3 ad bc
       -0.014862396 0.041553363 0.03990949 -0.021196231
0003c0 b1 db aa bd 15 48 e3 bd bc fc 73 bd 1e 73 20 3d
       -0.08342684 -0.11097733 -0.0595672 0.039172284
0003d0 ca c4 d9 bd 23 04 04 bd ee 9a e8 bc 5a 68 1b be
       -0.10633238 -0.032230508 -0.028394189 -0.15176526
0003e0 6f c3 9c 3d d2 9b d5 bc c3 43 7b 3e d3 fc 62 be
       0.076544635 -0.026075277 0.24537568 -0.22166757
0003f0 e6 61 ee 3d f6 40 9b bd 24 52 82 3d ae f3 4b bc
       0.116397664 -0.0758075 0.06363323 -0.0124482345

fc3.bias f4 [4]
000000 e1 11 32 bd e8 ca bf bd 7a ae 9a bd 68 bd aa bc
       -0.043474082 -0.09364873 -0.0755281 -0.020842269
